.dijitReset {

    margin: 0;
    border: 0;
    padding: 0;
    line-height: normal;
    font: inherit;
    color: inherit;
}

.dj_a11y .dijitReset {
    -moz-appearance: none;
}

.dijitInline {

    display: inline-block;
    #zoom: 1;
    #display: inline;
    border: 0;
    padding: 0;
    vertical-align: middle;
    #vertical-align: auto;
}

table.dijitInline {

    display: inline-table;
    box-sizing: content-box;
    -moz-box-sizing: content-box;
}

.dijitHidden {

    display: none !important;
}

.dijitVisible {

    display: block !important;
    position: relative;
}

.dj_ie6 .dijitComboBox .dijitInputContainer,
.dijitInputContainer {

    #zoom: 1;
    overflow: hidden;
    float: none !important;
    position: relative;
}

.dj_ie7 .dijitInputContainer {
    float: left !important;
    clear: left;
    display: inline-block !important;
}

.dj_ie .dijitSelect input,
.dj_ie input.dijitTextBox,
.dj_ie .dijitTextBox input {
    font-size: 100%;
}

.dijitSelect .dijitButtonText {
    float: left;
    vertical-align: top;
}

TABLE.dijitSelect {
    padding: 0 !important;
}

.dijitTextBox .dijitSpinnerButtonContainer,
.dijitTextBox .dijitArrowButtonContainer,
.dijitValidationTextBox .dijitValidationContainer {
    float: right;
    text-align: center;
}

.dijitSelect input.dijitInputField,
.dijitTextBox input.dijitInputField {

    padding-left: 0 !important;
    padding-right: 0 !important;
}

.dijitValidationTextBox .dijitValidationContainer {
    display: none;
}

.dijitTeeny {
    font-size: 1px;
    line-height: 1px;
}

.dijitOffScreen {
    position: absolute !important;
    left: 50% !important;
    top: -10000px !important;
}


.dijitPopup {
    position: absolute;
    background-color: transparent;
    margin: 0;
    border: 0;
    padding: 0;
}

.dijitPositionOnly {

    padding: 0 !important;
    border: 0 !important;
    background-color: transparent !important;
    background-image: none !important;
    height: auto !important;
    width: auto !important;
}

.dijitNonPositionOnly {

    float: none !important;
    position: static !important;
    margin: 0 0 0 0 !important;
    vertical-align: middle !important;
}

.dijitBackgroundIframe {

    position: absolute;
    left: 0;
    top: 0;
    width: 100%;
    height: 100%;
    z-index: -1;
    border: 0;
    padding: 0;
    margin: 0;
}

.dijitDisplayNone {

    display: none !important;
}

.dijitContainer {

    overflow: hidden;
}


.dj_a11y .dijitIcon,
.dj_a11y div.dijitArrowButtonInner,
.dj_a11y span.dijitArrowButtonInner,
.dj_a11y img.dijitArrowButtonInner,
.dj_a11y .dijitCalendarIncrementControl,
.dj_a11y .dijitTreeExpando {

    display: none;
}

.dijitSpinner div.dijitArrowButtonInner {
    display: block;
}

.dj_a11y .dijitA11ySideArrow {
    display: inline !important;
    cursor: pointer;
}


.dj_a11y .dijitCalendarDateLabel {
    padding: 1px;
    border: 0px !important;
}

.dj_a11y .dijitCalendarSelectedDate .dijitCalendarDateLabel {
    border-style: solid !important;
    border-width: 1px !important;
    padding: 0;
}

.dj_a11y .dijitCalendarDateTemplate {
    padding-bottom: 0.1em !important;
    border: 0px !important;
}

.dj_a11y .dijitButtonNode {
    border: black outset medium !important;


    padding: 0 !important;
}

.dj_a11y .dijitArrowButton {
    padding: 0 !important;
}

.dj_a11y .dijitButtonContents {
    margin: 0.15em;
}

.dj_a11y .dijitTextBoxReadOnly .dijitInputField,
.dj_a11y .dijitTextBoxReadOnly .dijitButtonNode {
    border-style: outset !important;
    border-width: medium !important;
    border-color: #999 !important;
    color: #999 !important;
}


.dijitButtonNode * {
    vertical-align: middle;
}

.dijitSelect .dijitArrowButtonInner,
.dijitButtonNode .dijitArrowButtonInner {

    background: no-repeat center;
    width: 12px;
    height: 12px;
    direction: ltr;
}



.dijitLeft {

    background-position: left top;
    background-repeat: no-repeat;
}

.dijitStretch {

    white-space: nowrap;
    background-repeat: repeat-x;
}

.dijitRight {

    #display: inline;
    background-position: right top;
    background-repeat: no-repeat;
}


.dj_gecko .dj_a11y .dijitButtonDisabled .dijitButtonNode {
    opacity: 0.5;
}

.dijitToggleButton,
.dijitButton,
.dijitDropDownButton,
.dijitComboButton {

    margin: 0.2em;
    vertical-align: middle;
}

.dijitButtonContents {
    display: block;
}

td.dijitButtonContents {
    display: table-cell;
}

.dijitButtonNode img {

    vertical-align: middle;

}

.dijitToolbar .dijitComboButton {

    border-collapse: separate;
}

.dijitToolbar .dijitToggleButton,
.dijitToolbar .dijitButton,
.dijitToolbar .dijitDropDownButton,
.dijitToolbar .dijitComboButton {
    margin: 0;
}

.dijitToolbar .dijitButtonContents {

    padding: 1px 2px;
}


.dj_webkit .dijitToolbar .dijitDropDownButton {
    padding-left: 0.3em;
}

.dj_gecko .dijitToolbar .dijitButtonNode::-moz-focus-inner {
    padding: 0;
}

.dijitSelect {
    border: 1px solid gray;
}

.dijitButtonNode {

    border: 1px solid gray;
    margin: 0;
    line-height: normal;
    vertical-align: middle;
    #vertical-align: auto;
    text-align: center;
    white-space: nowrap;
}

.dj_webkit .dijitSpinner .dijitSpinnerButtonContainer {

    line-height: inherit;
}

.dijitTextBox .dijitButtonNode {
    border-width: 0;
}

.dijitSelect,
.dijitSelect *,
.dijitButtonNode,
.dijitButtonNode * {
    cursor: pointer;
}

.dj_ie .dijitButtonNode {

    zoom: 1;
}

.dj_ie .dijitButtonNode button {

    overflow: visible;
}

div.dijitArrowButton {
    float: right;
}



.dijitTextBox {
    border: solid black 1px;
    #overflow: hidden;
    width: 15em;
    vertical-align: middle;
}

.dijitTextBoxReadOnly,
.dijitTextBoxDisabled {
    color: gray;
}

.dj_webkit .dijitTextBoxDisabled input {
    color: #eee;
}

.dj_webkit textarea.dijitTextAreaDisabled {
    color: #333;
}

.dj_gecko .dijitTextBoxReadOnly input.dijitInputField,
.dj_gecko .dijitTextBoxDisabled input {
    -moz-user-input: none;
}

.dijitPlaceHolder {

    color: #AAAAAA;
    font-style: italic;
    position: absolute;
    top: 0;
    left: 0;
    #filter: "";
}

.dijitTimeTextBox {
    width: 8em;
}


.dijitTextBox input:focus {
    outline: none;
}

.dijitTextBoxFocused {
    outline: 5px -webkit-focus-ring-color;
}

.dijitSelect input,
.dijitTextBox input {
    float: left;
}

.dj_ie6 input.dijitTextBox,
.dj_ie6 .dijitTextBox input {
    float: none;
}

.dijitInputInner {

    border: 0 !important;
    background-color: transparent !important;
    width: 100% !important;

    padding-left: 0 !important;
    padding-right: 0 !important;
    margin-left: 0 !important;
    margin-right: 0 !important;
}

.dj_a11y .dijitTextBox input {
    margin: 0 !important;
}

.dijitValidationTextBoxError input.dijitValidationInner,
.dijitSelect input,
.dijitTextBox input.dijitArrowButtonInner {

    text-indent: -2em !important;
    direction: ltr !important;
    text-align: left !important;
    height: auto !important;
    #text-indent: 0 !important;
    #letter-spacing: -5em !important;
    #text-align: right !important;
}

.dj_ie .dijitSelect input,
.dj_ie .dijitTextBox input,
.dj_ie input.dijitTextBox {
    overflow-y: visible;
    line-height: normal;
}

.dijitSelect .dijitSelectLabel span {
    line-height: 100%;
}

.dj_ie .dijitSelect .dijitSelectLabel {
    line-height: normal;
}

.dj_ie6 .dijitSelect .dijitSelectLabel,
.dj_ie7 .dijitSelect .dijitSelectLabel,
.dj_ie8 .dijitSelect .dijitSelectLabel,
.dj_iequirks .dijitSelect .dijitSelectLabel,
.dijitSelect td,
.dj_ie6 .dijitSelect input,
.dj_iequirks .dijitSelect input,
.dj_ie6 .dijitSelect .dijitValidationContainer,
.dj_ie6 .dijitTextBox input,
.dj_ie6 input.dijitTextBox,
.dj_iequirks .dijitTextBox input.dijitValidationInner,
.dj_iequirks .dijitTextBox input.dijitArrowButtonInner,
.dj_iequirks .dijitTextBox input.dijitSpinnerButtonInner,
.dj_iequirks .dijitTextBox input.dijitInputInner,
.dj_iequirks input.dijitTextBox {
    line-height: 100%;
}

.dj_a11y input.dijitValidationInner,
.dj_a11y input.dijitArrowButtonInner {

    text-indent: 0 !important;
    width: 1em !important;
    #text-align: left !important;
    color: black !important;
}

.dijitValidationTextBoxError .dijitValidationContainer {
    display: inline;
    cursor: default;
}



.dijitSpinner .dijitSpinnerButtonContainer,
.dijitComboBox .dijitArrowButtonContainer {

    border-width: 0 0 0 1px !important;
}

.dj_a11y .dijitSelect .dijitArrowButtonContainer,
.dijitToolbar .dijitComboBox .dijitArrowButtonContainer {

    border-width: 0 !important;
}

.dijitComboBoxMenu {

    list-style-type: none;
}

.dijitSpinner .dijitSpinnerButtonContainer .dijitButtonNode {

    border-width: 0;
}

.dj_ie .dj_a11y .dijitSpinner .dijitSpinnerButtonContainer .dijitButtonNode {
    clear: both;
}

.dj_ie .dijitToolbar .dijitComboBox {

    vertical-align: middle;
}



.dijitTextBox .dijitSpinnerButtonContainer {
    width: 1em;
    position: relative !important;
    overflow: hidden;
}

.dijitSpinner .dijitSpinnerButtonInner {
    width: 1em;
    visibility: hidden !important;
    overflow-x: hidden;
}

.dijitComboBox .dijitButtonNode,
.dijitSpinnerButtonContainer .dijitButtonNode {
    border-width: 0;
}

.dj_a11y .dijitSpinnerButtonContainer .dijitButtonNode {
    border-width: 0px !important;
    border-style: solid !important;
}

.dj_a11y .dijitTextBox .dijitSpinnerButtonContainer,
.dj_a11y .dijitSpinner .dijitArrowButtonInner,
.dj_a11y .dijitSpinnerButtonContainer input {
    width: 1em !important;
}

.dj_a11y .dijitSpinner .dijitArrowButtonInner {
    margin: 0 auto !important;
}

.dj_ie .dj_a11y .dijitSpinner .dijitArrowButtonInner .dijitInputField {
    padding-left: 0.3em !important;
    padding-right: 0.3em !important;
    margin-left: 0.3em !important;
    margin-right: 0.3em !important;
    width: 1.4em !important;
}

.dj_ie7 .dj_a11y .dijitSpinner .dijitArrowButtonInner .dijitInputField {
    padding-left: 0 !important;
    padding-right: 0 !important;
    width: 1em !important;
}

.dj_ie6 .dj_a11y .dijitSpinner .dijitArrowButtonInner .dijitInputField {
    margin-left: 0.1em !important;
    margin-right: 0.1em !important;
    width: 1em !important;
}

.dj_iequirks .dj_a11y .dijitSpinner .dijitArrowButtonInner .dijitInputField {
    margin-left: 0 !important;
    margin-right: 0 !important;
    width: 2em !important;
}

.dijitSpinner .dijitSpinnerButtonContainer .dijitArrowButton {

    padding: 0;
    position: absolute !important;
    right: 0;
    float: none;
    height: 50%;
    width: 100%;
    bottom: auto;
    left: 0;
    right: auto;
}

.dj_iequirks .dijitSpinner .dijitSpinnerButtonContainer .dijitArrowButton {
    width: auto;
}

.dj_a11y .dijitSpinnerButtonContainer .dijitArrowButton {
    overflow: visible !important;
}

.dijitSpinner .dijitSpinnerButtonContainer .dijitDownArrowButton {
    top: 50%;
    border-top-width: 1px !important;
}

.dijitSpinner .dijitSpinnerButtonContainer .dijitUpArrowButton {
    #bottom: 50%;
    top: 0;
}

.dijitSpinner .dijitArrowButtonInner {
    margin: auto;
    overflow-x: hidden;
    height: 100% !important;
}

.dj_iequirks .dijitSpinner .dijitArrowButtonInner {
    height: auto !important;
}

.dijitSpinner .dijitArrowButtonInner .dijitInputField {
    -moz-transform: scale(0.5);
    -moz-transform-origin: center top;
    -webkit-transform: scale(0.5);
    -webkit-transform-origin: center top;
    -o-transform: scale(0.5);
    -o-transform-origin: center top;
    transform: scale(0.5);
    transform-origin: left top;
    padding-top: 0;
    padding-bottom: 0;
    padding-left: 0 !important;
    padding-right: 0 !important;
    width: 100%;
    visibility: hidden;
}

.dj_ie .dijitSpinner .dijitArrowButtonInner .dijitInputField {
    zoom: 50%;
}

.dijitSpinner .dijitSpinnerButtonContainer .dijitArrowButtonInner {
    overflow: hidden;
}

.dj_a11y .dijitSpinner .dijitSpinnerButtonContainer .dijitArrowButton {
    width: 100%;
}

.dj_iequirks .dj_a11y .dijitSpinner .dijitSpinnerButtonContainer .dijitArrowButton {
    width: 1em;
}

.dj_a11y .dijitSpinner .dijitArrowButtonInner .dijitInputField {
    vertical-align: top;
    visibility: visible;
}

.dj_a11y .dijitSpinnerButtonContainer {
    width: 1em;
}



.dijitCheckBox,
.dijitRadio,
.dijitCheckBoxInput {
    padding: 0;
    border: 0;
    width: 16px;
    height: 16px;
    background-position: center center;
    background-repeat: no-repeat;
    overflow: hidden;
}

.dijitCheckBox input,
.dijitRadio input {
    margin: 0;
    padding: 0;
    display: block;
}

.dijitCheckBoxInput {

    opacity: 0.01;
}

.dj_ie .dijitCheckBoxInput {
    filter: alpha(opacity=0);
}

.dj_a11y .dijitCheckBox,
.dj_a11y .dijitRadio {

    width: auto !important;
    height: auto !important;
}

.dj_a11y .dijitCheckBoxInput {
    opacity: 1;
    filter: none;
    width: auto;
    height: auto;
}

.dj_a11y .dijitFocusedLabel {

    border: 1px dotted;
    outline: 0px !important;
}



.dijitProgressBar {
    z-index: 0;
}

.dijitProgressBarEmpty {

    position: relative;
    overflow: hidden;
    border: 1px solid black;
    z-index: 0;
}

.dijitProgressBarFull {

    position: absolute;
    overflow: hidden;
    z-index: -1;
    top: 0;
    width: 100%;
}

.dj_ie6 .dijitProgressBarFull {
    height: 1.6em;
}

.dijitProgressBarTile {

    position: absolute;
    overflow: hidden;
    top: 0;
    left: 0;
    bottom: 0;
    right: 0;
    margin: 0;
    padding: 0;
    width: 100%;
    height: auto;
    background-color: #aaa;
    background-attachment: fixed;
}

.dj_a11y .dijitProgressBarTile {

    border-width: 2px;
    border-style: solid;
    background-color: transparent !important;
}

.dj_ie6 .dijitProgressBarTile {

    position: static;

    height: 1.6em;
}

.dijitProgressBarIndeterminate .dijitProgressBarTile {}

.dijitProgressBarIndeterminateHighContrastImage {
    display: none;
}

.dj_a11y .dijitProgressBarIndeterminate .dijitProgressBarIndeterminateHighContrastImage {
    display: block;
    position: absolute;
    top: 0;
    bottom: 0;
    margin: 0;
    padding: 0;
    width: 100%;
    height: auto;
}

.dijitProgressBarLabel {
    display: block;
    position: static;
    width: 100%;
    text-align: center;
    background-color: transparent !important;
}



.dijitTooltip {
    position: absolute;
    z-index: 2000;
    display: block;

    left: 0;
    top: -10000px;
    overflow: visible;
}

.dijitTooltipContainer {
    border: solid black 2px;
    background: #b8b5b5;
    color: black;
    font-size: small;
}

.dijitTooltipFocusNode {
    padding: 2px 2px 2px 2px;
}

.dijitTooltipConnector {
    position: absolute;
}

.dj_a11y .dijitTooltipConnector {
    display: none;
}

.dijitTooltipData {
    display: none;
}



.dijitLayoutContainer {
    position: relative;
    display: block;
    overflow: hidden;
}

.dijitAlignTop,
.dijitAlignBottom,
.dijitAlignLeft,
.dijitAlignRight {
    position: absolute;
    overflow: hidden;
}

body .dijitAlignClient {
    position: absolute;
}


.dijitBorderContainer,
.dijitBorderContainerNoGutter {
    position: relative;
    overflow: hidden;
    z-index: 0;
}

.dijitBorderContainerPane,
.dijitBorderContainerNoGutterPane {
    position: absolute !important;
    z-index: 2;
}

.dijitBorderContainer>.dijitTextArea {

    resize: none;
}

.dijitGutter {

    position: absolute;
    font-size: 1px;
}



.dijitSplitter {
    position: absolute;
    overflow: hidden;
    z-index: 10;
    background-color: #fff;
    border-color: gray;
    border-style: solid;
    border-width: 0;
}

.dj_ie .dijitSplitter {
    z-index: 1;
}

.dijitSplitterActive {
    z-index: 11 !important;
}

.dijitSplitterCover {
    position: absolute;
    z-index: -1;
    top: 0;
    left: 0;
    width: 100%;
    height: 100%;
}

.dijitSplitterCoverActive {
    z-index: 3 !important;
}


.dj_ie .dijitSplitterCover {
    background: white;
    filter: alpha(opacity=0);
}

.dijitSplitterH {
    height: 7px;
    border-top: 1px;
    border-bottom: 1px;
    cursor: row-resize;
}

.dijitSplitterV {
    width: 7px;
    border-left: 1px;
    border-right: 1px;
    cursor: col-resize;
}

.dijitSplitContainer {
    position: relative;
    overflow: hidden;
    display: block;
}

.dj_ff3 .dj_a11y div.dijitSplitter:focus {
    outline-style: dotted;
    outline-width: 2px;
}

.dijitSplitPane {
    position: absolute;
}

.dijitSplitContainerSizerH,
.dijitSplitContainerSizerV {
    position: absolute;
    font-size: 1px;
    background-color: ThreeDFace;
    border: 1px solid;
    border-color: ThreeDHighlight ThreeDShadow ThreeDShadow ThreeDHighlight;
    margin: 0;
}

.dijitSplitContainerSizerH .thumb,
.dijitSplitterV .dijitSplitterThumb {
    overflow: hidden;
    position: absolute;
    top: 49%;
}

.dijitSplitContainerSizerV .thumb,
.dijitSplitterH .dijitSplitterThumb {
    position: absolute;
    left: 49%;
}

.dijitSplitterShadow,
.dijitSplitContainerVirtualSizerH,
.dijitSplitContainerVirtualSizerV {
    font-size: 1px;
    background-color: ThreeDShadow;
    -moz-opacity: 0.5;
    opacity: 0.5;
    filter: Alpha(Opacity=50);
    margin: 0;
}

.dijitSplitContainerSizerH,
.dijitSplitContainerVirtualSizerH {
    cursor: col-resize;
}

.dijitSplitContainerSizerV,
.dijitSplitContainerVirtualSizerV {
    cursor: row-resize;
}

.dj_a11y .dijitSplitterH {
    border-top: 1px solid #d3d3d3 !important;
    border-bottom: 1px solid #d3d3d3 !important;
}

.dj_a11y .dijitSplitterV {
    border-left: 1px solid #d3d3d3 !important;
    border-right: 1px solid #d3d3d3 !important;
}



.dijitContentPane {
    display: block;
    overflow: auto;
}

.dijitContentPaneSingleChild {

    overflow: hidden;
}

.dijitContentPaneLoading .dijitIconLoading,
.dijitContentPaneError .dijitIconError {
    margin-right: 9px;
}



.dijitTitlePane {
    display: block;
    overflow: hidden;
}

.dijitTitlePaneTitle {
    cursor: pointer;
}

.dijitFixedOpen,
.dijitFixedClosed {

    cursor: default;
}

.dijitFixedOpen .dijitArrowNode,
.dijitFixedOpen .dijitArrowNodeInner,
.dijitFixedClosed .dijitArrowNode,
.dijitFixedClosed .dijitArrowNodeInner {

    display: none;
}

.dijitTitlePaneTitle * {
    vertical-align: middle;
}

.dijitTitlePane .dijitArrowNodeInner {

    display: none;
}

.dj_a11y .dijitTitlePane .dijitArrowNodeInner {

    display: inline !important;
    font-family: monospace;
}

.dj_a11y .dijitTitlePane .dijitArrowNode {

    display: none;
}

.dj_ie6 .dijitTitlePaneContentOuter,
.dj_ie6 .dijitTitlePane .dijitTitlePaneTitle {

    zoom: 1;
}



.dijitColorPalette {
    border: 1px solid #999;
    background: #fff;
    position: relative;
}

.dijitColorPalette .dijitPaletteTable {

    padding: 2px 3px 3px 3px;
    position: relative;
    overflow: hidden;
    outline: 0;
    border-collapse: separate;
}

.dj_ie6 .dijitColorPalette .dijitPaletteTable,
.dj_ie7 .dijitColorPalette .dijitPaletteTable,
.dj_iequirks .dijitColorPalette .dijitPaletteTable {

    padding: 0;
    margin: 2px 3px 3px 3px;
}

.dijitColorPalette .dijitPaletteCell {

    font-size: 1px;
    vertical-align: middle;
    text-align: center;
    background: none;
}

.dijitColorPalette .dijitPaletteImg {

    padding: 1px;
    border: 1px solid #999;
    margin: 2px 1px;
    cursor: default;
    font-size: 1px;
}

.dj_gecko .dijitColorPalette .dijitPaletteImg {
    padding-bottom: 0;
}

.dijitColorPalette .dijitColorPaletteSwatch {

    width: 14px;
    height: 12px;
}

.dijitPaletteTable td {
    padding: 0;
}

.dijitColorPalette .dijitPaletteCell:hover .dijitPaletteImg {

    border: 1px solid #000;
}

.dijitColorPalette .dijitPaletteCell:active .dijitPaletteImg,
.dijitColorPalette .dijitPaletteTable .dijitPaletteCellSelected .dijitPaletteImg {
    border: 2px solid #000;
    margin: 1px 0;
}


.dj_a11y .dijitColorPalette .dijitPaletteTable,
.dj_a11y .dijitColorPalette .dijitPaletteTable * {

    background-color: transparent !important;
}



.dijitAccordionContainer {
    border: 1px solid #b7b7b7;
    border-top: 0 !important;
}

.dijitAccordionTitle {
    cursor: pointer;
}

.dijitAccordionTitleSelected {
    cursor: default;
}


.dijitAccordionTitle .arrowTextUp,
.dijitAccordionTitle .arrowTextDown {
    display: none;
    font-size: 0.65em;
    font-weight: normal !important;
}

.dj_a11y .dijitAccordionTitle .arrowTextUp,
.dj_a11y .dijitAccordionTitleSelected .arrowTextDown {
    display: inline;
}

.dj_a11y .dijitAccordionTitleSelected .arrowTextUp {
    display: none;
}

.dijitAccordionChildWrapper {

    overflow: hidden;
}



.dijitCalendarContainer {
    width: auto;
}

.dijitCalendarContainer th,
.dijitCalendarContainer td {
    padding: 0;
    vertical-align: middle;
}

.dijitCalendarYearLabel {
    white-space: nowrap;
}

.dijitCalendarNextYear {
    margin: 0 0 0 0.55em;
}

.dijitCalendarPreviousYear {
    margin: 0 0.55em 0 0;
}

.dijitCalendarIncrementControl {
    vertical-align: middle;
}

.dijitCalendarIncrementControl,
.dijitCalendarDateTemplate,
.dijitCalendarMonthLabel,
.dijitCalendarPreviousYear,
.dijitCalendarNextYear {
    cursor: pointer;
}

.dijitCalendarDisabledDate {
    color: gray;
    text-decoration: line-through;
    cursor: default;
}

.dijitSpacer {

    position: relative;
    height: 1px;
    overflow: hidden;
    visibility: hidden;
}



.dijitCalendarMonthMenu .dijitCalendarMonthLabel {
    text-align: center;
}



.dijitMenu {
    border: 1px solid black;
    background-color: white;
}

.dijitMenuTable {
    border-collapse: collapse;
    border-width: 0;
    background-color: white;
}


.dj_webkit .dijitMenuTable td[colspan="2"] {
    border-right: hidden;
}

.dijitMenuItem {
    text-align: left;
    white-space: nowrap;
    padding: .1em .2em;
    cursor: pointer;
}


.dijitMenuItem:focus {
    outline: none
}

.dijitMenuPassive .dijitMenuItemHover,
.dijitMenuItemSelected {

    background-color: black;
    color: white;
}

.dijitMenuItemIcon,
.dijitMenuExpand {
    background-repeat: no-repeat;
}

.dijitMenuItemDisabled * {

    opacity: 0.5;
    cursor: default;
}

.dj_ie .dj_a11y .dijitMenuItemDisabled,
.dj_ie .dj_a11y .dijitMenuItemDisabled *,
.dj_ie .dijitMenuItemDisabled * {
    color: gray;
    filter: alpha(opacity=35);
}

.dijitMenuItemLabel {
    position: relative;
    vertical-align: middle;
}

.dj_a11y .dijitMenuItemSelected {
    border: 1px dotted black !important;
}

.dj_ff3 .dj_a11y .dijitMenuItem td {
    padding: 0 !important;
    background: none !important;
}

.dj_a11y .dijitMenuItemSelected .dijitMenuItemLabel {
    border-width: 1px;
    border-style: solid;
}

.dj_ie8 .dj_a11y .dijitMenuItemLabel {
    position: static;
}

.dijitMenuExpandA11y {
    display: none;
}

.dj_a11y .dijitMenuExpandA11y {
    display: inline;
}

.dijitMenuSeparator td {
    border: 0;
    padding: 0;
}


.dijitMenuSeparatorTop {
    height: 50%;
    margin: 0;
    margin-top: 3px;
    font-size: 1px;
}

.dijitMenuSeparatorBottom {
    height: 50%;
    margin: 0;
    margin-bottom: 3px;
    font-size: 1px;
}


.dijitCheckedMenuItemIconChar {
    vertical-align: middle;
    visibility: hidden;
}

.dijitCheckedMenuItemChecked .dijitCheckedMenuItemIconChar {
    visibility: visible;
}

.dj_a11y .dijitCheckedMenuItemIconChar {
    display: inline !important;
}

.dj_a11y .dijitCheckedMenuItemIcon {
    display: none;
}

.dj_ie .dj_a11y .dijitMenuBar .dijitMenuItem {

    margin: 0;
}



.dijitStackController .dijitToggleButtonChecked * {
    cursor: default;
}



.dijitTabContainer {
    z-index: 0;
    overflow-y: visible;
}

.dj_ie6 .dijitTabContainer {

    overflow: hidden;

}

.dijitTabContainerNoLayout {
    width: 100%;
}

.dijitTabContainerBottom-tabs,
.dijitTabContainerTop-tabs,
.dijitTabContainerLeft-tabs,
.dijitTabContainerRight-tabs {
    z-index: 1;
    overflow: visible !important;
}

.dijitTabController {
    z-index: 1;
}

.dijitTabContainerBottom-container,
.dijitTabContainerTop-container,
.dijitTabContainerLeft-container,
.dijitTabContainerRight-container {
    z-index: 0;
    overflow: hidden;
    border: 1px solid black;
}

.nowrapTabStrip {
    width: 50000px;
    display: block;
    position: relative;
    text-align: left;
    z-index: 1;
}

.dijitTabListWrapper {
    overflow: hidden;
    z-index: 1;
}

.dj_a11y .tabStripButton img {

    display: none;
}

.dijitTabContainerTop-tabs {
    border-bottom: 1px solid black;
}

.dijitTabContainerTop-container {
    border-top: 0;
}

.dijitTabContainerLeft-tabs {
    border-right: 1px solid black;
    float: left;
}

.dijitTabContainerLeft-container {
    border-left: 0;
}

.dijitTabContainerBottom-tabs {
    border-top: 1px solid black;
}

.dijitTabContainerBottom-container {
    border-bottom: 0;
}

.dijitTabContainerRight-tabs {
    border-left: 1px solid black;
    float: left;
}

.dijitTabContainerRight-container {
    border-right: 0;
}

div.dijitTabDisabled,
.dj_ie div.dijitTabDisabled {
    cursor: auto;
}

.dijitTab {
    position: relative;
    cursor: pointer;
    white-space: nowrap;
    z-index: 3;
}

.dijitTab * {

    vertical-align: middle;
}

.dijitTabChecked {
    cursor: default;
}

.dijitTabContainerTop-tabs .dijitTab {
    top: 1px;
}

.dijitTabContainerBottom-tabs .dijitTab {
    top: -1px;
}

.dijitTabContainerLeft-tabs .dijitTab {
    left: 1px;
}

.dijitTabContainerRight-tabs .dijitTab {
    left: -1px;
}


.dijitTabContainerTop-tabs .dijitTab,
.dijitTabContainerBottom-tabs .dijitTab {

    display: inline-block;
    #zoom: 1;
    #display: inline;
}

.tabStripButton {
    z-index: 12;
}

.dijitTabButtonDisabled .tabStripButton {
    display: none;
}


.dijitTabCloseButton {
    margin-left: 1em;
}

.dijitTabCloseText {
    display: none;
}

.dijitTab .tabLabel {

    min-height: 15px;
    display: inline-block;
}

.dijitNoIcon {

    display: none;
}

.dj_ie6 .dijitTab .dijitNoIcon {

    display: inline;
    height: 15px;
    width: 1px;
}



.dj_a11y .dijitTabCloseButton {
    background-image: none !important;
    width: auto !important;
    height: auto !important;
}

.dj_a11y .dijitTabCloseText {
    display: inline;
}

.dijitTabPane,
.dijitStackContainer-child,
.dijitAccordionContainer-child {

    border: none !important;
}


.dijitInlineEditBoxDisplayMode {
    border: 1px solid transparent;
    cursor: text;
}

.dj_a11y .dijitInlineEditBoxDisplayMode,
.dj_ie6 .dijitInlineEditBoxDisplayMode {

    border: none;
}

.dijitInlineEditBoxDisplayModeHover,
.dj_a11y .dijitInlineEditBoxDisplayModeHover,
.dj_ie6 .dijitInlineEditBoxDisplayModeHover {

    background-color: #e2ebf2;
    border: solid 1px black;
}

.dijitInlineEditBoxDisplayModeDisabled {
    cursor: default;
}


.dijitTree {
    overflow: auto;
}

.dijitTreeIndent {

    width: 19px;
}

.dijitTreeRow,
.dijitTreeContent {
    white-space: nowrap;
}

.dijitTreeRow img {

    vertical-align: middle;
}

.dijitTreeContent {
    cursor: default;
}

.dijitExpandoText {
    display: none;
}

.dj_a11y .dijitExpandoText {
    display: inline;
    padding-left: 10px;
    padding-right: 10px;
    font-family: monospace;
    border-style: solid;
    border-width: thin;
    cursor: pointer;
}

.dijitTreeLabel {
    margin: 0 4px;
}



.dijitDialog {
    position: absolute;
    z-index: 999;
    overflow: hidden;
}

.dijitDialogTitleBar {
    cursor: move;
}

.dijitDialogFixed .dijitDialogTitleBar {
    cursor: default;
}

.dijitDialogCloseIcon {
    cursor: pointer;
}

.dijitDialogUnderlayWrapper {
    position: absolute;
    left: 0;
    top: 0;
    z-index: 998;
    display: none;
    background: transparent !important;
}

.dijitDialogUnderlay {
    background: #eee;
    opacity: 0.5;
}

.dj_ie .dijitDialogUnderlay {
    filter: alpha(opacity=50);
}


.dj_a11y .dijitSpinnerButtonContainer,
.dj_a11y .dijitDialog {
    opacity: 1 !important;
    background-color: white !important;
}

.dijitDialog .closeText {
    display: none;

    position: absolute;
}

.dj_a11y .dijitDialog .closeText {
    display: inline;
}



.dijitSliderMoveable {
    z-index: 99;
    position: absolute !important;
    display: block;
    vertical-align: middle;
}

.dijitSliderMoveableH {
    right: 0;
}

.dijitSliderMoveableV {
    right: 50%;
}

.dj_a11y div.dijitSliderImageHandle,
.dijitSliderImageHandle {
    margin: 0;
    padding: 0;
    position: relative !important;
    border: 8px solid gray;
    width: 0;
    height: 0;
    cursor: pointer;
}

.dj_iequirks .dj_a11y .dijitSliderImageHandle {
    font-size: 0;
}

.dj_ie7 .dijitSliderImageHandle {
    overflow: hidden;
}

.dj_ie7 .dj_a11y .dijitSliderImageHandle {
    overflow: visible;
}

.dj_a11y .dijitSliderFocused .dijitSliderImageHandle {
    border: 4px solid #000;
    height: 8px;
    width: 8px;
}

.dijitSliderImageHandleV {
    top: -8px;
    right: -50%;
}

.dijitSliderImageHandleH {
    left: 50%;
    top: -5px;
    vertical-align: top;
}

.dijitSliderBar {
    border-style: solid;
    border-color: black;
    cursor: pointer;
}

.dijitSliderBarContainerV {
    position: relative;
    height: 100%;
    z-index: 1;
}

.dijitSliderBarContainerH {
    position: relative;
    z-index: 1;
}

.dijitSliderBarH {
    height: 4px;
    border-width: 1px 0;
}

.dijitSliderBarV {
    width: 4px;
    border-width: 0 1px;
}

.dijitSliderProgressBar {
    background-color: red;
    z-index: 1;
}

.dijitSliderProgressBarV {
    position: static !important;
    height: 0;
    vertical-align: top;
    text-align: left;
}

.dijitSliderProgressBarH {
    position: absolute !important;
    width: 0;
    vertical-align: middle;
    overflow: visible;
}

.dijitSliderRemainingBar {
    overflow: hidden;
    background-color: transparent;
    z-index: 1;
}

.dijitSliderRemainingBarV {
    height: 100%;
    text-align: left;
}

.dijitSliderRemainingBarH {
    width: 100% !important;
}


.dijitSliderBumper {
    overflow: hidden;
    z-index: 1;
}

.dijitSliderBumperV {
    width: 4px;
    height: 8px;
    border-width: 0 1px;
}

.dijitSliderBumperH {
    width: 8px;
    height: 4px;
    border-width: 1px 0;
}

.dijitSliderBottomBumper,
.dijitSliderLeftBumper {
    background-color: red;
}

.dijitSliderTopBumper,
.dijitSliderRightBumper {
    background-color: transparent;
}

.dijitSliderDecoration {
    text-align: center;
}

.dijitSliderDecorationC,
.dijitSliderDecorationV {
    position: relative;
}

.dijitSliderDecorationH {
    width: 100%;
}

.dijitSliderDecorationV {
    height: 100%;
}

.dijitSliderButton {
    font-family: monospace;
    margin: 0;
    padding: 0;
    display: block;
}

.dj_a11y .dijitSliderButtonInner {
    visibility: visible !important;
}

.dijitSliderButtonContainer {
    text-align: center;
    height: 0;
}

.dijitSliderButtonContainer * {
    cursor: pointer;
}

.dijitSlider .dijitButtonNode {
    padding: 0;
    display: block;
}

.dijitRuleContainer {
    position: relative;
    overflow: visible;
}

.dijitRuleContainerV {
    height: 100%;
    line-height: 0;
    float: left;
    text-align: left;
}

.dj_opera .dijitRuleContainerV {
    line-height: 2%;
}

.dj_ie .dijitRuleContainerV {
    line-height: normal;
}

.dj_gecko .dijitRuleContainerV {
    margin: 0 0 1px 0;
}

.dijitRuleMark {
    position: absolute;
    border: 1px solid black;
    line-height: 0;
    height: 100%;
}

.dijitRuleMarkH {
    width: 0;
    border-top-width: 0 !important;
    border-bottom-width: 0 !important;
    border-left-width: 0 !important;
}

.dijitRuleLabelContainer {
    position: absolute;
}

.dijitRuleLabelContainerH {
    text-align: center;
    display: inline-block;
}

.dijitRuleLabelH {
    position: relative;
    left: -50%;
}

.dijitRuleLabelV {

    text-overflow: ellipsis;
    white-space: nowrap;
    overflow: hidden;
}

.dijitRuleMarkV {
    height: 0;
    border-right-width: 0 !important;
    border-bottom-width: 0 !important;
    border-left-width: 0 !important;
    width: 100%;
    left: 0;
}

.dj_ie .dijitRuleLabelContainerV {
    margin-top: -.55em;
}

.dj_a11y .dijitSliderReadOnly,
.dj_a11y .dijitSliderDisabled {
    opacity: 0.6;
}

.dj_ie .dj_a11y .dijitSliderReadOnly .dijitSliderBar,
.dj_ie .dj_a11y .dijitSliderDisabled .dijitSliderBar {
    filter: alpha(opacity=40);
}


.dj_a11y .dijitSlider .dijitSliderButtonContainer div {
    font-family: monospace;
    font-size: 1em;
    line-height: 1em;
    height: auto;
    width: auto;
    margin: 0 4px;
}


.dj_a11y .dijitButtonContents .dijitButtonText,
.dj_a11y .dijitTab .tabLabel {
    display: inline !important;
}

.dj_a11y .dijitSelect .dijitButtonText {
    display: inline-block !important;
}

.dijitSelectError .dijitButtonContents .dijitButtonText {
    display: none !important;
}


.dijitTextArea {
    width: 100%;
    overflow-y: auto;
}

.dijitTextArea[cols] {
    width: auto;
}

.dj_ie .dijitTextAreaCols {
    width: auto;
}

.dijitExpandingTextArea {

    resize: none;
}




.dijitToolbarSeparator {
    height: 18px;
    width: 5px;
    padding: 0 1px;
    margin: 0;
}


.dijitIEFixedToolbar {
    position: absolute;

    top: expression(eval((document.documentElement||document.body).scrollTop));
}

.dijitEditor {
    display: block;
}

.dijitEditorDisabled,
.dijitEditorReadOnly {
    color: gray;
}



.dijitTimePickerItemInner {
    text-align: center;
    border: 0;
    padding: 2px 8px 2px 8px;
}

.dijitTimePickerTick,
.dijitTimePickerMarker {
    border-bottom: 1px solid gray;
}

.dijitTimePicker .dijitDownArrowButton {
    border-top: none !important;
}

.dijitTimePickerTick {
    color: #CCC;
}

.dijitTimePickerMarker {
    color: black;
    background-color: #CCC;
}

.dijitTimePickerItemSelected {
    font-weight: bold;
    color: #333;
    background-color: #b7cdee;
}

.dijitTimePickerItemHover {
    background-color: gray;
    color: white;
    cursor: pointer;
}

.dijitTimePickerItemDisabled {
    color: gray;
    text-decoration: line-through;
}

.dj_a11y .dijitTimePickerItemSelected .dijitTimePickerItemInner {
    border: solid 4px black;
}

.dj_a11y .dijitTimePickerItemHover .dijitTimePickerItemInner {
    border: dashed 4px black;
}


.dijitToggleButtonIconChar {

    display: none !important;
}

.dj_a11y .dijitToggleButton .dijitToggleButtonIconChar {
    display: inline !important;
    visibility: hidden;
}

.dj_ie6 .dijitToggleButtonIconChar,
.dj_ie6 .tabStripButton .dijitButtonText {
    font-family: "Arial Unicode MS";
}

.dj_a11y .dijitToggleButtonChecked .dijitToggleButtonIconChar {
    display: inline !important;
    visibility: visible !important;
}

.dijitArrowButtonChar {
    display: none !important;
}

.dj_a11y .dijitArrowButtonChar {
    display: inline !important;
}

.dj_a11y .dijitDropDownButton .dijitArrowButtonInner,
.dj_a11y .dijitComboButton .dijitArrowButtonInner {
    display: none !important;
}


.dj_a11y .dijitSelect {
    border-collapse: separate !important;
    border-width: 1px;
    border-style: solid;
}

.dj_ie .dijitSelect {
    vertical-align: middle;
}

.dj_ie6 .dijitSelect .dijitValidationContainer,
.dj_ie8 .dijitSelect .dijitButtonText {
    vertical-align: top;
}

.dj_ie6 .dijitTextBox .dijitInputContainer,
.dj_iequirks .dijitTextBox .dijitInputContainer,
.dj_ie6 .dijitTextBox .dijitArrowButtonInner,
.dj_ie6 .dijitSpinner .dijitSpinnerButtonInner,
.dijitSelect .dijitSelectLabel {
    vertical-align: baseline;
}

.dijitToolbar .dijitSelect {
    margin: 0;
}

.dj_webkit .dijitToolbar .dijitSelect {
    padding-left: 0.3em;
}

.dijitSelect .dijitButtonContents {
    padding: 0;
    white-space: nowrap;
    text-align: left;
    border-style: none solid none none;
    border-width: 1px;
}

.dijitSelectFixedWidth .dijitButtonContents {
    width: 100%;
}

.dijitSelectMenu .dijitMenuItemIcon {

    display: none;
}

.dj_ie6 .dijitSelectMenu .dijitMenuItemLabel,
.dj_ie7 .dijitSelectMenu .dijitMenuItemLabel {

    position: static;
}


.dijitSelectLabel * {
    vertical-align: baseline;
}


.dijitSelectSelectedOption * {
    font-weight: bold;
}


.dijitSelectMenu {
    border-width: 1px;
}



.dijitSelectMenu .dijitMenuTable {
    margin: 0;
    background-color: transparent;
}


.dijitForceStatic {
    position: static !important;
}


.dijitReadOnly *,
.dijitDisabled *,
.dijitReadOnly,
.dijitDisabled {

    cursor: default;
}


.dojoDndItem {
    padding: 2px;


    -webkit-touch-callout: none;
    -webkit-user-select: none;
}

.dojoDndHorizontal .dojoDndItem {

    #display: inline;
    display: inline-block;
}

.dojoDndItemBefore,
.dojoDndItemAfter {
    border: 0px solid #369;
}

.dojoDndItemBefore {
    border-width: 2px 0 0 0;
    padding: 0 2px 2px 2px;
}

.dojoDndItemAfter {
    border-width: 0 0 2px 0;
    padding: 2px 2px 0 2px;
}

.dojoDndHorizontal .dojoDndItemBefore {
    border-width: 0 0 0 2px;
    padding: 2px 2px 2px 0;
}

.dojoDndHorizontal .dojoDndItemAfter {
    border-width: 0 2px 0 0;
    padding: 2px 0 2px 2px;
}

.dojoDndItemOver {
    cursor: pointer;
}

.dj_gecko .dijitArrowButtonInner INPUT,
.dj_gecko INPUT.dijitArrowButtonInner {
    -moz-user-focus: ignore;
}


body {
    font-family: "Helvetica Neue", Helvetica, Arial, sans-serif;
    font-size: 14px
}

p {
    margin: 0 0 10px
}

.lead {
    margin-bottom: 20px;
    font-size: 20px;
    font-weight: 200;
    line-height: 30px
}

small {
    font-size: 85%
}

strong {
    font-weight: bold
}

em {
    font-style: italic
}

cite {
    font-style: normal
}

.muted {
    color: #999
}

h1,
h2,
h3,
h4,
h5,
h6 {
    margin: 10px 0;
    font-family: inherit;
    font-weight: bold;
    line-height: 1;
    color: inherit;
    text-rendering: optimizelegibility;
}

h1 small,
h2 small,
h3 small,
h4 small,
h5 small,
h6 small {
    font-weight: normal;
    line-height: 1;
    color: #999
}

h1 {
    font-size: 36px;
    line-height: 40px
}

h2 {
    font-size: 30px;
    line-height: 40px
}

h3 {
    font-size: 24px;
    line-height: 40px
}

h4 {
    font-size: 18px;
    line-height: 20px
}

h5 {
    font-size: 14px;
    line-height: 20px
}

h6 {
    font-size: 12px;
    line-height: 20px
}

h1 small {
    font-size: 24px
}

h2 small {
    font-size: 18px
}

h3 small {
    font-size: 14px
}

h4 small {
    font-size: 14px
}

.page-header {
    padding-bottom: 9px;
    margin: 20px 0 30px;
    border-bottom: 1px solid #eee
}

ul,
ol {
    padding: 0;
    margin: 0 0 20px/2 25px
}

ul ul,
ul ol,
ol ol,
ol ul {
    margin-bottom: 0
}

li {
    line-height: 20px
}

ul.unstyled,
ol.unstyled {
    margin-left: 0;
    list-style: none
}

dl {
    margin-bottom: 20px
}

dt,
dd {
    line-height: 20px
}

dt {
    font-weight: bold
}

dd {
    margin-left: 20px/2
}

.dl-horizontal dt {
    float: left;
    width: 120px;
    clear: left;
    text-align: right;
}

.dl-horizontal dd {
    margin-left: 130px
}

hr {
    margin: 20px 0;
    border: 0;
    border-top: 1px solid #eee;
    border-bottom: 1px solid #fff
}

abbr[title] {
    cursor: help;
    border-bottom: 1px dotted #999
}

abbr.initialism {
    font-size: 90%;
    text-transform: uppercase
}

blockquote {
    padding: 0 0 0 15px;
    margin: 0 0 20px;
    border-left: 5px solid #eee;
}

blockquote p {
    margin-bottom: 0;
    font-size: 16px;
    font-weight: 300;
    line-height: 25px
}

blockquote small {
    display: block;
    line-height: 20px;
    color: #999;
}

blockquote small:before {
    content: '\2014 \00A0'
}

blockquote.pull-right {
    float: right;
    padding-right: 15px;
    padding-left: 0;
    border-right: 5px solid #eee;
    border-left: 0;
}

blockquote.pull-right p,
blockquote.pull-right small {
    text-align: right
}

blockquote.pull-right small:before {
    content: ''
}

blockquote.pull-right small:after {
    content: '\00A0 \2014'
}

q:before,
q:after,
blockquote:before,
blockquote:after {
    content: ""
}

address {
    display: block;
    margin-bottom: 20px;
    font-style: normal;
    line-height: 20px
}

@font-face {
    font-family: 'FontAwesome';
    src: url("../assets/fontawesome-webfont.eot");
    src: url("../assets/fontawesome-webfont.eot?#iefix") format('embedded-opentype'), url("../assets/fontawesome-webfont.woff") format('woff'), url("../assets/fontawesome-webfont.ttf") format('truetype'), url("../assets/fontawesome-webfont.svg#FontAwesome") format('svg');
    font-weight: normal;
    font-style: normal
}

[class^="icon-"]:before,
[class*=" icon-"]:before {
    font-family: FontAwesome;
    font-weight: normal;
    font-style: normal;
    display: inline-block;
    text-decoration: inherit
}

a [class^="icon-"],
a [class*=" icon-"] {
    display: inline-block;
    text-decoration: inherit
}

.icon-large:before {
    vertical-align: middle;
    font-size: 4/3em
}

.btn [class^="icon-"],
.nav-tabs [class^="icon-"],
.btn [class*=" icon-"],
.nav-tabs [class*=" icon-"] {
    line-height: .9em
}

li [class^="icon-"],
li [class*=" icon-"] {
    display: inline-block;
    width: 1.25em;
    text-align: center
}

li .icon-large:before,
li .icon-large:before {
    width: 1.875em
}

ul.icons {
    list-style-type: none;
    margin-left: 2em;
    text-indent: -.8em;
}

ul.icons li [class^="icon-"],
ul.icons li [class*=" icon-"] {
    width: .8em
}

ul.icons li .icon-large:before,
ul.icons li .icon-large:before {
    vertical-align: initial
}

.icon-glass:before {
    content: "\f000"
}

.icon-music:before {
    content: "\f001"
}

.icon-search:before,
.dijitIconSearch:before {
    content: "\f002"
}

.icon-envelope:before,
.dijitIconMail:before {
    content: "\f003"
}

.icon-heart:before {
    content: "\f004"
}

.icon-star:before {
    content: "\f005"
}

.icon-star-empty:before {
    content: "\f006"
}

.icon-user:before {
    content: "\f007"
}

.icon-film:before {
    content: "\f008"
}

.icon-th-large:before {
    content: "\f009"
}

.icon-th:before {
    content: "\f00a"
}

.icon-th-list:before {
    content: "\f00b"
}

.icon-ok:before,
.dbootstrap .dijitCheckBox.dijitCheckBoxChecked:before,
.dbootstrap .dijitRadio.dijitRadioChecked:before {
    content: "\f00c"
}

.icon-remove:before,
.dijitIconDelete:before {
    content: "\f00d"
}

.icon-zoom-in:before {
    content: "\f00e"
}

.icon-zoom-out:before {
    content: "\f010"
}

.icon-off:before {
    content: "\f011"
}

.icon-signal:before {
    content: "\f012"
}

.icon-cog:before,
.dijitIconConfigure:before {
    content: "\f013"
}

.icon-trash:before,
.dijitEditorIconDelete:before {
    content: "\f014"
}

.icon-home:before {
    content: "\f015"
}

.icon-file:before,
.dijitIconFile:before,
.dijitEditorIconNewPage:before {
    content: "\f016"
}

.icon-time:before {
    content: "\f017"
}

.icon-road:before {
    content: "\f018"
}

.icon-download-alt:before {
    content: "\f019"
}

.icon-download:before {
    content: "\f01a"
}

.icon-upload:before {
    content: "\f01b"
}

.icon-inbox:before {
    content: "\f01c"
}

.icon-play-circle:before {
    content: "\f01d"
}

.icon-repeat:before,
.dijitEditorIconRedo:before {
    content: "\f01e"
}

.icon-refresh:before {
    content: "\f021"
}

.icon-list-alt:before {
    content: "\f022"
}

.icon-lock:before {
    content: "\f023"
}

.icon-flag:before {
    content: "\f024"
}

.icon-headphones:before {
    content: "\f025"
}

.icon-volume-off:before {
    content: "\f026"
}

.icon-volume-down:before {
    content: "\f027"
}

.icon-volume-up:before {
    content: "\f028"
}

.icon-qrcode:before {
    content: "\f029"
}

.icon-barcode:before {
    content: "\f02a"
}

.icon-tag:before {
    content: "\f02b"
}

.icon-tags:before {
    content: "\f02c"
}

.icon-book:before {
    content: "\f02d"
}

.icon-bookmark:before,
.dijitIconBookmark:before {
    content: "\f02e"
}

.icon-print:before,
.dijitIconPrint:before,
.dijitEditorIconPrint:before {
    content: "\f02f"
}

.icon-camera:before {
    content: "\f030"
}

.icon-font:before {
    content: "\f031"
}

.icon-bold:before,
.dijitEditorIconBold:before {
    content: "\f032"
}

.icon-italic:before,
.dijitEditorIconItalic:before {
    content: "\f033"
}

.icon-text-height:before {
    content: "\f034"
}

.icon-text-width:before {
    content: "\f035"
}

.icon-align-left:before,
.dijitEditorIconJustifyLeft:before {
    content: "\f036"
}

.icon-align-center:before,
.dijitEditorIconJustifyCenter:before {
    content: "\f037"
}

.icon-align-right:before,
.dijitEditorIconJustifyRight:before {
    content: "\f038"
}

.icon-align-justify:before,
.dijitEditorIconJustifyFull:before {
    content: "\f039"
}

.icon-list:before {
    content: "\f03a"
}

.icon-indent-left:before,
.dijitEditorIconOutdent:before {
    content: "\f03b"
}

.icon-indent-right:before,
.dijitEditorIconIndent:before {
    content: "\f03c"
}

.icon-facetime-video:before {
    content: "\f03d"
}

.icon-picture:before,
.dijitEditorIconInsertImage:before {
    content: "\f03e"
}

.icon-pencil:before {
    content: "\f040"
}

.icon-map-marker:before {
    content: "\f041"
}

.icon-adjust:before {
    content: "\f042"
}

.icon-tint:before {
    content: "\f043"
}

.icon-edit:before,
.dijitIconEdit:before {
    content: "\f044"
}

.icon-share:before {
    content: "\f045"
}

.icon-check:before {
    content: "\f046"
}

.icon-move:before {
    content: "\f047"
}

.icon-step-backward:before {
    content: "\f048"
}

.icon-fast-backward:before {
    content: "\f049"
}

.icon-backward:before {
    content: "\f04a"
}

.icon-play:before {
    content: "\f04b"
}

.icon-pause:before {
    content: "\f04c"
}

.icon-stop:before {
    content: "\f04d"
}

.icon-forward:before {
    content: "\f04e"
}

.icon-fast-forward:before {
    content: "\f050"
}

.icon-step-forward:before {
    content: "\f051"
}

.icon-eject:before {
    content: "\f052"
}

.icon-chevron-left:before,
.dbootstrap .dijitTabStripSlideLeftIcon:before {
    content: "\f053"
}

.icon-chevron-right:before,
.dbootstrap .dijitTabStripSlideRightIcon:before {
    content: "\f054"
}

.icon-plus-sign:before,
.dbootstrap .dijitTreeExpandoClosed:before {
    content: "\f055"
}

.icon-minus-sign:before,
.dbootstrap .dijitTreeExpandoOpened:before {
    content: "\f056"
}

.icon-remove-sign:before {
    content: "\f057"
}

.icon-ok-sign:before {
    content: "\f058"
}

.icon-question-sign:before {
    content: "\f059"
}

.icon-info-sign:before {
    content: "\f05a"
}

.icon-screenshot:before {
    content: "\f05b"
}

.icon-remove-circle:before {
    content: "\f05c"
}

.icon-ok-circle:before {
    content: "\f05d"
}

.icon-ban-circle:before,
.dijitEditorIconCancel:before {
    content: "\f05e"
}

.icon-arrow-left:before,
.dbootstrap .dijitCalendarDecrease:before {
    content: "\f060"
}

.icon-arrow-right:before,
.dbootstrap .dijitCalendarIncrease:before {
    content: "\f061"
}

.icon-arrow-up:before {
    content: "\f062"
}

.icon-arrow-down:before {
    content: "\f063"
}

.icon-share-alt:before {
    content: "\f064"
}

.icon-resize-full:before {
    content: "\f065"
}

.icon-resize-small:before {
    content: "\f066"
}

.icon-plus:before {
    content: "\f067"
}

.icon-minus:before {
    content: "\f068"
}

.icon-asterisk:before {
    content: "\f069"
}

.icon-exclamation-sign:before,
.dijitIconError:before {
    content: "\f06a"
}

.icon-gift:before {
    content: "\f06b"
}

.icon-leaf:before,
.dijitLeaf {
    content: "\f06c"
}

.icon-fire:before {
    content: "\f06d"
}

.icon-eye-open:before {
    content: "\f06e"
}

.icon-eye-close:before {
    content: "\f070"
}

.icon-warning-sign:before {
    content: "\f071"
}

.icon-plane:before {
    content: "\f072"
}

.icon-calendar:before {
    content: "\f073"
}

.icon-random:before {
    content: "\f074"
}

.icon-comment:before {
    content: "\f075"
}

.icon-magnet:before {
    content: "\f076"
}

.icon-chevron-up:before {
    content: "\f077"
}

.icon-chevron-down:before,
.dbootstrap .dijitTabStripMenuIcon:before {
    content: "\f078"
}

.icon-retweet:before {
    content: "\f079"
}

.icon-shopping-cart:before {
    content: "\f07a"
}

.icon-folder-close:before,
.dijitFolderClosed:before,
.dijitIconFolderClosed:before {
    content: "\f07b"
}

.icon-folder-open:before,
.dijitFolderOpened:before,
.dijitIconFolderOpen:before {
    content: "\f07c"
}

.icon-resize-vertical:before {
    content: "\f07d"
}

.icon-resize-horizontal:before {
    content: "\f07e"
}

.icon-bar-chart:before,
.dijitIconChart:before {
    content: "\f080"
}

.icon-twitter-sign:before {
    content: "\f081"
}

.icon-facebook-sign:before {
    content: "\f082"
}

.icon-camera-retro:before {
    content: "\f083"
}

.icon-key:before,
.dijitIconKey:before {
    content: "\f084"
}

.icon-cogs:before {
    content: "\f085"
}

.icon-comments:before {
    content: "\f086"
}

.icon-thumbs-up:before {
    content: "\f087"
}

.icon-thumbs-down:before {
    content: "\f088"
}

.icon-star-half:before {
    content: "\f089"
}

.icon-heart-empty:before {
    content: "\f08a"
}

.icon-signout:before {
    content: "\f08b"
}

.icon-linkedin-sign:before {
    content: "\f08c"
}

.icon-pushpin:before {
    content: "\f08d"
}

.icon-external-link:before {
    content: "\f08e"
}

.icon-signin:before {
    content: "\f090"
}

.icon-trophy:before {
    content: "\f091"
}

.icon-github-sign:before {
    content: "\f092"
}

.icon-upload-alt:before {
    content: "\f093"
}

.icon-lemon:before {
    content: "\f094"
}

.icon-phone:before {
    content: "\f095"
}

.icon-check-empty:before {
    content: "\f096"
}

.icon-bookmark-empty:before {
    content: "\f097"
}

.icon-phone-sign:before {
    content: "\f098"
}

.icon-twitter:before {
    content: "\f099"
}

.icon-facebook:before {
    content: "\f09a"
}

.icon-github:before {
    content: "\f09b"
}

.icon-unlock:before {
    content: "\f09c"
}

.icon-credit-card:before {
    content: "\f09d"
}

.icon-rss:before {
    content: "\f09e"
}

.icon-hdd:before {
    content: "\f0a0"
}

.icon-bullhorn:before {
    content: "\f0a1"
}

.icon-bell:before {
    content: "\f0a2"
}

.icon-certificate:before {
    content: "\f0a3"
}

.icon-hand-right:before {
    content: "\f0a4"
}

.icon-hand-left:before {
    content: "\f0a5"
}

.icon-hand-up:before {
    content: "\f0a6"
}

.icon-hand-down:before {
    content: "\f0a7"
}

.icon-circle-arrow-left:before {
    content: "\f0a8"
}

.icon-circle-arrow-right:before {
    content: "\f0a9"
}

.icon-circle-arrow-up:before {
    content: "\f0aa"
}

.icon-circle-arrow-down:before {
    content: "\f0ab"
}

.icon-globe:before {
    content: "\f0ac"
}

.icon-wrench:before {
    content: "\f0ad"
}

.icon-tasks:before,
.dijitIconTask:before {
    content: "\f0ae"
}

.icon-filter:before,
.dijitIconFilter:before {
    content: "\f0b0"
}

.icon-briefcase:before {
    content: "\f0b1"
}

.icon-fullscreen:before,
.dijitEditorIconFullScreen:before {
    content: "\f0b2"
}

.icon-group:before,
.dijitIconUsers:before {
    content: "\f0c0"
}

.icon-link:before,
.dijitEditorIconCreateLink:before,
.dijitEditorIconUnlink:before {
    content: "\f0c1"
}

.icon-cloud:before {
    content: "\f0c2"
}

.icon-beaker:before {
    content: "\f0c3"
}

.icon-cut:before,
.dijitIconCut:before,
.dijitEditorIconCut:before {
    content: "\f0c4"
}

.icon-copy:before,
.dijitIconCopy:before,
.dijitEditorIconCopy:before {
    content: "\f0c5"
}

.icon-paper-clip:before {
    content: "\f0c6"
}

.icon-save:before,
.dijitIconSave:before,
.dijitEditorIconSave:before {
    content: "\f0c7"
}

.icon-sign-blank:before,
.dbootstrap .dijitTreeExpandoLeaf:before {
    content: "\f0c8"
}

.icon-reorder:before {
    content: "\f0c9"
}

.icon-list-ul:before,
.dijitEditorIconListBulletIndent:before,
.dijitEditorIconListBulletOutdent:before,
.dijitEditorIconInsertUnorderedList:before {
    content: "\f0ca"
}

.icon-list-ol:before,
.dijitEditorIconListNumIndent:before,
.dijitEditorIconListNumOutdent:before,
.dijitEditorIconInsertOrderedList:before {
    content: "\f0cb"
}

.icon-strikethrough:before,
.dijitEditorIconStrikethrough:before {
    content: "\f0cc"
}

.icon-underline:before,
.dijitEditorIconUnderline:before {
    content: "\f0cd"
}

.icon-table:before,
.dijitIconTable:before,
.dijitEditorIconInsertTable:before {
    content: "\f0ce"
}

.icon-magic:before {
    content: "\f0d0"
}

.icon-truck:before {
    content: "\f0d1"
}

.icon-pinterest:before {
    content: "\f0d2"
}

.icon-pinterest-sign:before {
    content: "\f0d3"
}

.icon-google-plus-sign:before {
    content: "\f0d4"
}

.icon-google-plus:before {
    content: "\f0d5"
}

.icon-money:before {
    content: "\f0d6"
}

.icon-caret-down:before,
.dbootstrap .dijitArrowButtonInner:before {
    content: "\f0d7"
}

.icon-caret-up:before,
.dbootstrap .dijitUpArrowButton .dijitArrowButtonInner:before {
    content: "\f0d8"
}

.icon-caret-left:before {
    content: "\f0d9"
}

.icon-caret-right:before,
.dbootstrap .dijitMenuArrowCell .dijitMenuExpand:before {
    content: "\f0da"
}

.icon-columns:before {
    content: "\f0db"
}

.icon-sort:before {
    content: "\f0dc"
}

.icon-sort-down:before {
    content: "\f0dd"
}

.icon-sort-up:before {
    content: "\f0de"
}

.icon-envelope-alt:before {
    content: "\f0e0"
}

.icon-linkedin:before {
    content: "\f0e1"
}

.icon-undo:before,
.dijitIconUndo:before,
.dijitEditorIconUndo:before {
    content: "\f0e2"
}

.icon-legal:before {
    content: "\f0e3"
}

.icon-dashboard:before {
    content: "\f0e4"
}

.icon-comment-alt:before {
    content: "\f0e5"
}

.icon-comments-alt:before {
    content: "\f0e6"
}

.icon-bolt:before {
    content: "\f0e7"
}

.icon-sitemap:before {
    content: "\f0e8"
}

.icon-umbrella:before {
    content: "\f0e9"
}

.icon-paste:before,
.dijitIconPaste:before,
.dijitEditorIconPaste:before {
    content: "\f0ea"
}

.icon-user-md:before {
    content: "\f200"
}

.dijitIcon:before,
.dbootstrap .dijitMenuArrowCell .dijitMenuExpand:before,
.dbootstrap .dijitTabStripIcon:before,
.dbootstrap .dijitArrowButtonInner:before,
.dbootstrap .dijitCheckBox:before,
.dbootstrap .dijitRadio:before,
.dbootstrap .dijitCalendarIncrementControl:before,
.dbootstrap .dijitTreeExpando:before {
    font-family: FontAwesome;
    font-weight: normal;
    font-style: normal;
    display: inline-block;
    text-decoration: inherit
}

.dijitNoIcon {
    display: none
}

* {
    outline: none
}

body {
    margin: 0;
    font-family: "Helvetica Neue", Helvetica, Arial, sans-serif;
    font-size: 14px;
    line-height: 20px;
    color: #333;
    background-color: #fff
}

a {
    color: #08c;
    text-decoration: none
}

a:hover {
    color: #0074ad;
    text-decoration: underline
}

.dbootstrap .dijitReadOnly *,
.dbootstrap .dijitDisabled *,
.dbootstrap .dijitReadOnly,
.dbootstrap .dijitDisabled {
    cursor: not-allowed
}

.dbootstrap .alert {
    padding: 8px 35px 8px 14px;
    margin-bottom: 20px;
    text-shadow: 0 1px 0 rgba(255, 255, 255, 0.5);
    background-color: #fcf8e3;
    border: 1px solid #fbefd6;
    -webkit-border-radius: 4px;
    border-radius: 4px;
    color: #c09853
}

.dbootstrap .alert h1,
.dbootstrap .alert h2,
.dbootstrap .alert h3,
.dbootstrap .alert h4 {
    margin: 0
}

.dbootstrap .alert-success {
    background-color: #dff0d8;
    border-color: #d7eac8;
    color: #468847
}

.dbootstrap .alert-danger,
.dbootstrap .alert-error {
    background-color: #f2dede;
    border-color: #eed4d8;
    color: #b94a48
}

.dbootstrap .alert-info {
    background-color: #d9edf7;
    border-color: #bee9f1;
    color: #3a87ad
}

.dbootstrap .alert-block {
    padding-top: 14px;
    padding-bottom: 14px
}

.dbootstrap .alert-block>p,
.dbootstrap .alert-block>ul {
    margin-bottom: 0
}

.dbootstrap .alert-block p+p {
    margin-top: 5px
}

.dbootstrap .application {
    width: 100%;
    height: 100%;
    border: 0;
    padding: 0;
    margin: 0
}

.dbootstrap .dijitMenuBar {
    overflow: visible;
    margin-bottom: 20px;
    color: #555;
    padding-left: 20px;
    padding-right: 20px;
    background-image: -webkit-gradient(linear, left top, left bottom, color-stop(0, #fff), color-stop(1, #f2f2f2));
    background-image: -webkit-linear-gradient(top, #fff 0%, #f2f2f2 100%);
    background-image: -moz-linear-gradient(top, #fff 0%, #f2f2f2 100%);
    background-image: -o-linear-gradient(top, #fff 0%, #f2f2f2 100%);
    background-image: -ms-linear-gradient(top, #fff 0%, #f2f2f2 100%);
    background-image: linear-gradient(top, #fff 0%, #f2f2f2 100%);
    border: 1px solid #d5d5d5;
    -webkit-border-radius: 4px;
    border-radius: 4px;
    -webkit-box-shadow: 0 1px 4px rgba(0, 0, 0, 0.065);
    box-shadow: 0 1px 4px rgba(0, 0, 0, 0.065)
}

.dbootstrap .dijitMenuBar .dijitMenuItem {
    color: #555;
    padding: 10px 15px 10px;
    text-shadow: 0 1px 0 #fff
}

.dbootstrap .dijitMenuBar .dijitMenuItemHover {
    color: #333;
    background-image: none;
    background-color: transparent
}

.dbootstrap .dijitMenuBar .dijitMenuItemActive,
.dbootstrap .dijitMenuBar .dijitMenuItemSelected {
    color: #555;
    text-decoration: none;
    background-image: none;
    background-color: #e6e6e6;
    -webkit-box-shadow: inset 0 3px 8px rgba(0, 0, 0, 0.125);
    box-shadow: inset 0 3px 8px rgba(0, 0, 0, 0.125)
}

.dbootstrap .dijitMenuBar .dijitMenuItemDisabled {
    color: #555;
    -webkit-box-shadow: none;
    box-shadow: none;
    background-color: transparent
}

.dbootstrap .dijitMenuBar .brand {
    font-weight: 200;
    color: #555;
    text-shadow: 0 1px 0 #fff;
    font-size: 21px;
    padding: 10px;
    display: inline;
    vertical-align: middle
}

.dbootstrap .dijitMenuBar.primary {
    -webkit-border-radius: 0;
    border-radius: 0;
    margin-bottom: 5px
}

.dbootstrap .dijitMenuBar.inverse {
    color: #999;
    background-image: -webkit-gradient(linear, left top, left bottom, color-stop(0, #222), color-stop(1, #111));
    background-image: -webkit-linear-gradient(top, #222 0%, #111 100%);
    background-image: -moz-linear-gradient(top, #222 0%, #111 100%);
    background-image: -o-linear-gradient(top, #222 0%, #111 100%);
    background-image: -ms-linear-gradient(top, #222 0%, #111 100%);
    background-image: linear-gradient(top, #222 0%, #111 100%);
    border-color: #252525
}

.dbootstrap .dijitMenuBar.inverse .dijitMenuItem {
    color: #999;
    text-shadow: 0 -1px 0 rgba(0, 0, 0, 0.25)
}

.dbootstrap .dijitMenuBar.inverse .dijitMenuItemHover {
    background-color: transparent;
    color: #fff
}

.dbootstrap .dijitMenuBar.inverse .dijitMenuItemActive,
.dbootstrap .dijitMenuBar.inverse .dijitMenuItemSelected {
    color: #fff;
    background-color: #111;
    -webkit-box-shadow: inset 0 3px 8px rgba(255, 255, 255, 0.125);
    box-shadow: inset 0 3px 8px rgba(255, 255, 255, 0.125)
}

.dbootstrap .dijitMenuBar.inverse .dijitMenuItemDisabled {
    color: #999
}

.dbootstrap .dijitMenuBar.inverse .brand {
    color: #fff;
    text-shadow: 0 -1px 0 rgba(0, 0, 0, 0.25)
}

.dbootstrap .dijitMenu {
    z-index: 1000;
    padding: 5px 0;
    margin: 2px 0 0;
    background-color: #fff;
    border: 1px solid #ccc;
    border: 1px solid rgba(0, 0, 0, 0.2);
    -webkit-border-radius: 6px;
    border-radius: 6px;
    -webkit-box-shadow: 0 5px 10px rgba(0, 0, 0, 0.2);
    box-shadow: 0 5px 10px rgba(0, 0, 0, 0.2);
    border-collapse: separate
}

.dbootstrap .dijitMenuItem,
.dbootstrap .dijitCalendarMonthMenu .dijitCalendarMonthLabel {
    font-weight: normal;
    color: #333;
    white-space: nowrap;
    padding: 6px 20px
}

.dbootstrap .dijitMenuItemHover,
.dbootstrap .dijitMenuItemSelected,
.dbootstrap .dijitCalendarMonthMenu .dijitCalendarMonthLabelHover {
    text-decoration: none;
    color: #fff;
    background-color: #08c;
    background-image: -webkit-gradient(linear, left top, left bottom, color-stop(0, #08c), color-stop(1, #0081c2));
    background-image: -webkit-linear-gradient(top, #08c 0%, #0081c2 100%);
    background-image: -moz-linear-gradient(top, #08c 0%, #0081c2 100%);
    background-image: -o-linear-gradient(top, #08c 0%, #0081c2 100%);
    background-image: -ms-linear-gradient(top, #08c 0%, #0081c2 100%);
    background-image: linear-gradient(top, #08c 0%, #0081c2 100%)
}

.dbootstrap td.dijitMenuItemLabel {
    padding: 6px .3em
}

.dbootstrap tr.dijitMenuItem td:first-child {
    padding-left: 20px
}

.dbootstrap tr.dijitMenuItem td:last-child {
    padding-right: 20px
}

.dbootstrap .dijitMenuSeparator {
    margin: 9px 1px
}

.dbootstrap .dijitMenuSeparatorTop {
    border-bottom: 1px solid #e5e5e5;
    height: auto
}

.dbootstrap .dijitMenuSeparatorBottom {
    height: auto
}

.dbootstrap .dijitMenuItemIcon,
.dbootstrap .dijitMenuExpand {
    line-height: 13px
}

.dbootstrap .dijitContentPane {
    padding: 10px
}

.dbootstrap .dijitTabPaneWrapper {
    border: 1px solid #eee
}

.dbootstrap .dijitTabContainerBottom-tabs,
.dbootstrap .dijitTabContainerTop-tabs,
.dbootstrap .dijitTabContainerLeft-tabs,
.dbootstrap .dijitTabContainerRight-tabs {
    border: none
}

.dbootstrap .dijitTab {
    color: #08c;
    text-shadow: 0 1px 0 rgba(255, 255, 255, 0.5);
    margin-right: 2px;
    padding-right: 12px;
    padding-left: 12px;
    padding-top: 8px;
    padding-bottom: 8px;
    line-height: 20px;
    border: 1px solid transparent;
    -webkit-border-radius: 4px;
    border-radius: 4px
}

.dbootstrap .dijitTabHover {
    color: #0074ad;
    background-color: #eee;
    border-color: #eee
}

.dbootstrap .dijitTabChecked {
    color: #555;
    background-color: #fff;
    border-color: #eee;
    cursor: default
}

.dbootstrap .dijitTabCloseButton {
    font-weight: bold;
    text-shadow: 0 1px 0 #fff;
    opacity: .2;
    filter: alpha(opacity=20);
    -ms-filter: "progid:DXImageTransform.Microsoft.Alpha(Opacity=20)";
    margin-left: 5px;
    cursor: pointer
}

.dbootstrap .dijitTabCloseButtonHover {
    opacity: .5;
    filter: alpha(opacity=50);
    -ms-filter: "progid:DXImageTransform.Microsoft.Alpha(Opacity=50)"
}

.dbootstrap .dijitTabCloseButton .dijitTabCloseText {
    display: inline
}

.dbootstrap .dijitTabContainerTop-container {
    margin-top: -1px
}

.dbootstrap .dijitTabContainerTop .dijitTab {
    border-bottom-left-radius: 0;
    border-bottom-right-radius: 0
}

.dbootstrap .dijitTabContainerTop .dijitTabChecked {
    border-bottom-color: transparent
}

.dbootstrap .dijitTabContainerBottom-container {
    margin-bottom: -1px
}

.dbootstrap .dijitTabContainerBottom .dijitTab {
    border-top-left-radius: 0;
    border-top-right-radius: 0
}

.dbootstrap .dijitTabContainerBottom .dijitTabChecked {
    border-top-color: transparent
}

.dbootstrap .tabStripButtonHover {
    background-color: transparent;
    border: 1px solid transparent
}

.dbootstrap .dijitTabDisabled .dijitTabStripIcon {
    opacity: .65;
    filter: alpha(opacity=65);
    -ms-filter: "progid:DXImageTransform.Microsoft.Alpha(Opacity=65)"
}

.dbootstrap .dijitTabContainerTop.dijitTabContainerNested {
    margin-top: 5px
}

.dbootstrap .dijitTabContainerTop .dijitTabPaneWrapperNested {
    border-bottom: none;
    border-right: none;
    border-left: none
}

.dbootstrap .dijitTabContainerBottom.dijitTabContainerNested {
    margin-bottom: 5px
}

.dbootstrap .dijitTabContainerBottom .dijitTabPaneWrapperNested {
    border-top: none;
    border-right: none;
    border-left: none
}

.dbootstrap .dijitAccordionContainer {
    border: none
}

.dbootstrap .dijitAccordionInnerContainer {
    margin-bottom: 2px;
    border: 1px solid #e5e5e5;
    -webkit-border-radius: 4px;
    border-radius: 4px
}

.dbootstrap .dijitAccordionTitle {
    color: #08c;
    border-bottom: none;
    padding: 8px 15px
}

.dbootstrap .dijitAccordionChildWrapper {
    border-top: 1px solid #e5e5e5
}

.dbootstrap .dijitAccordionContainer .dijitAccordionContainer-child {
    padding: 9px 15px
}

.dbootstrap .dijitAccordionTitleHover {
    color: #0074ad
}

.dbootstrap .well,
.dbootstrap fieldset {
    min-height: 20px;
    padding: 19px;
    margin-bottom: 20px;
    background-color: #f5f5f5;
    border: 1px solid #e4e4e4;
    -webkit-border-radius: 4px;
    border-radius: 4px;
    -webkit-box-shadow: inset 0 1px 1px rgba(0, 0, 0, 0.05);
    box-shadow: inset 0 1px 1px rgba(0, 0, 0, 0.05);
}

.dbootstrap .well blockquote,
.dbootstrap fieldset blockquote {
    border-color: #ddd;
    border-color: rgba(0, 0, 0, 0.15)
}

.dbootstrap .well-large {
    padding: 24px;
    -webkit-border-radius: 6px;
    border-radius: 6px
}

.dbootstrap .well-small {
    padding: 9px;
    -webkit-border-radius: 3px;
    border-radius: 3px
}

.dbootstrap .dijitButtonNode {
    border: none
}

.dbootstrap .dijitButtonNode * {
    vertical-align: baseline
}

.dbootstrap .dijitButtonNode .dijitIcon,
.dbootstrap .dijitArrowButtonInner {
    line-height: 13px
}

.dbootstrap .primary .dijitButtonNode {
    color: #fff;
    text-shadow: 0 -1px 0 rgba(0, 0, 0, 0.25);
    background-color: #04c;
    background-image: -webkit-gradient(linear, left top, left bottom, color-stop(0, #08c), color-stop(1, #04c));
    background-image: -webkit-linear-gradient(top, #08c 0%, #04c 100%);
    background-image: -moz-linear-gradient(top, #08c 0%, #04c 100%);
    background-image: -o-linear-gradient(top, #08c 0%, #04c 100%);
    background-image: -ms-linear-gradient(top, #08c 0%, #04c 100%);
    background-image: linear-gradient(top, #08c 0%, #04c 100%);
    background-repeat: repeat-x;
    border-color: #04c #04c #003aad;
    border-color: rgba(0, 0, 0, 0.1) rgba(0, 0, 0, 0.1) rgba(0, 0, 0, 0.25)
}

.dbootstrap .warning .dijitButtonNode {
    color: #fff;
    text-shadow: 0 -1px 0 rgba(0, 0, 0, 0.25);
    background-color: #f89406;
    background-image: -webkit-gradient(linear, left top, left bottom, color-stop(0, #faa42b), color-stop(1, #f89406));
    background-image: -webkit-linear-gradient(top, #faa42b 0%, #f89406 100%);
    background-image: -moz-linear-gradient(top, #faa42b 0%, #f89406 100%);
    background-image: -o-linear-gradient(top, #faa42b 0%, #f89406 100%);
    background-image: -ms-linear-gradient(top, #faa42b 0%, #f89406 100%);
    background-image: linear-gradient(top, #faa42b 0%, #f89406 100%);
    background-repeat: repeat-x;
    border-color: #f89406 #f89406 #d37e05;
    border-color: rgba(0, 0, 0, 0.1) rgba(0, 0, 0, 0.1) rgba(0, 0, 0, 0.25)
}

.dbootstrap .danger .dijitButtonNode {
    color: #fff;
    text-shadow: 0 -1px 0 rgba(0, 0, 0, 0.25);
    background-color: #bd362f;
    background-image: -webkit-gradient(linear, left top, left bottom, color-stop(0, #ee5f5b), color-stop(1, #bd362f));
    background-image: -webkit-linear-gradient(top, #ee5f5b 0%, #bd362f 100%);
    background-image: -moz-linear-gradient(top, #ee5f5b 0%, #bd362f 100%);
    background-image: -o-linear-gradient(top, #ee5f5b 0%, #bd362f 100%);
    background-image: -ms-linear-gradient(top, #ee5f5b 0%, #bd362f 100%);
    background-image: linear-gradient(top, #ee5f5b 0%, #bd362f 100%);
    background-repeat: repeat-x;
    border-color: #bd362f #bd362f #a12e28;
    border-color: rgba(0, 0, 0, 0.1) rgba(0, 0, 0, 0.1) rgba(0, 0, 0, 0.25)
}

.dbootstrap .success .dijitButtonNode {
    color: #fff;
    text-shadow: 0 -1px 0 rgba(0, 0, 0, 0.25);
    background-color: #51a351;
    background-image: -webkit-gradient(linear, left top, left bottom, color-stop(0, #62c462), color-stop(1, #51a351));
    background-image: -webkit-linear-gradient(top, #62c462 0%, #51a351 100%);
    background-image: -moz-linear-gradient(top, #62c462 0%, #51a351 100%);
    background-image: -o-linear-gradient(top, #62c462 0%, #51a351 100%);
    background-image: -ms-linear-gradient(top, #62c462 0%, #51a351 100%);
    background-image: linear-gradient(top, #62c462 0%, #51a351 100%);
    background-repeat: repeat-x;
    border-color: #51a351 #51a351 #458b45;
    border-color: rgba(0, 0, 0, 0.1) rgba(0, 0, 0, 0.1) rgba(0, 0, 0, 0.25)
}

.dbootstrap .info .dijitButtonNode {
    color: #fff;
    text-shadow: 0 -1px 0 rgba(0, 0, 0, 0.25);
    background-color: #2f96b4;
    background-image: -webkit-gradient(linear, left top, left bottom, color-stop(0, #5bc0de), color-stop(1, #2f96b4));
    background-image: -webkit-linear-gradient(top, #5bc0de 0%, #2f96b4 100%);
    background-image: -moz-linear-gradient(top, #5bc0de 0%, #2f96b4 100%);
    background-image: -o-linear-gradient(top, #5bc0de 0%, #2f96b4 100%);
    background-image: -ms-linear-gradient(top, #5bc0de 0%, #2f96b4 100%);
    background-image: linear-gradient(top, #5bc0de 0%, #2f96b4 100%);
    background-repeat: repeat-x;
    border-color: #2f96b4 #2f96b4 #287f99;
    border-color: rgba(0, 0, 0, 0.1) rgba(0, 0, 0, 0.1) rgba(0, 0, 0, 0.25)
}

.dbootstrap .inverse .dijitButtonNode {
    color: #fff;
    text-shadow: 0 -1px 0 rgba(0, 0, 0, 0.25);
    background-color: #222;
    background-image: -webkit-gradient(linear, left top, left bottom, color-stop(0, #444), color-stop(1, #222));
    background-image: -webkit-linear-gradient(top, #444 0%, #222 100%);
    background-image: -moz-linear-gradient(top, #444 0%, #222 100%);
    background-image: -o-linear-gradient(top, #444 0%, #222 100%);
    background-image: -ms-linear-gradient(top, #444 0%, #222 100%);
    background-image: linear-gradient(top, #444 0%, #222 100%);
    background-repeat: repeat-x;
    border-color: #222 #222 #1d1d1d;
    border-color: rgba(0, 0, 0, 0.1) rgba(0, 0, 0, 0.1) rgba(0, 0, 0, 0.25)
}

.dbootstrap .dijitButtonHover .dijitButtonNode,
.dbootstrap .dijitDropDownButtonHover .dijitButtonNode,
.dbootstrap .dijitComboButton .dijitButtonNodeHover,
.dbootstrap .dijitComboButton .dijitDownArrowButtonHover,
.dbootstrap .dijitToggleButtonHover .dijitButtonNode,
.dbootstrap .dijitDropDownButtonActive .dijitButtonNode {
    text-decoration: none;
    background-position: 0 -15px;
    -webkit-transition: background-position .1s linear;
    -moz-transition: background-position .1s linear;
    -o-transition: background-position .1s linear;
    -ms-transition: background-position .1s linear;
    transition: background-position .1s linear
}

.dbootstrap .dijitButtonActive .dijitButtonNode,
.dbootstrap .dijitComboButton .dijitButtonNodeActive,
.dbootstrap .dijitToggleButtonActive .dijitButtonNode,
.dbootstrap .dijitToggleButtonChecked .dijitButtonNode,
.dbootstrap .dijitComboButton .dijitArrowButton.dijitHasDropDownOpen {
    background-image: none;
    outline: 0;
    -webkit-box-shadow: inset 0 2px 4px rgba(0, 0, 0, 0.15), 0 1px 2px rgba(0, 0, 0, 0.05);
    box-shadow: inset 0 2px 4px rgba(0, 0, 0, 0.15), 0 1px 2px rgba(0, 0, 0, 0.05)
}

.dbootstrap .dijitButtonDisabled .dijitButtonNode,
.dbootstrap .dijitDropDownButtonDisabled .dijitButtonNode,
.dbootstrap .dijitComboButtonDisabled .dijitButtonNode,
.dbootstrap .dijitToggleButtonDisabled .dijitButtonNode,
.dbootstrap .dijitComboBoxDisabled .dijitButtonNode,
.dbootstrap .dijitSpinnerDisabled .dijitButtonNode,
.dbootstrap .dijitSelectDisabled .dijitButtonNode {
    cursor: not-allowed;
    background-image: none;
    opacity: .65;
    filter: alpha(opacity=65);
    -ms-filter: "progid:DXImageTransform.Microsoft.Alpha(Opacity=65)";
    -webkit-box-shadow: none;
    box-shadow: none
}

.dbootstrap .dijitToggleButtonDisabled.dijitToggleButtonChecked .dijitButtonNode {
    -webkit-box-shadow: inset 0 2px 4px rgba(0, 0, 0, 0.15), 0 1px 2px rgba(0, 0, 0, 0.05);
    box-shadow: inset 0 2px 4px rgba(0, 0, 0, 0.15), 0 1px 2px rgba(0, 0, 0, 0.05)
}

.dbootstrap .dijitButtonText {
    padding: 0 .3em;
    text-align: center
}

.dbootstrap .dijitArrowButtonInner {
    height: auto;
    width: auto
}

.dbootstrap .dijitComboButton td.dijitStretch,
.dbootstrap .dijitComboButton td.dijitArrowButton {
    display: table-cell
}

.dbootstrap .dijitComboButton .dijitArrowButton,
.dbootstrap .dijitComboBox .dijitButtonNode.dijitArrowButton,
.dbootstrap .dijitSpinnerButtonContainer.dijitButtonNode,
.dbootstrap .dijitSelect .dijitButtonNode.dijitArrowButton {
    border-left-width: 0;
    padding: 6px 10px;
    -webkit-border-radius: 0 4px 4px 0;
    border-radius: 0 4px 4px 0
}

.dbootstrap .dijitComboButton .dijitStretch {
    -webkit-border-radius: 4px 0 0 4px;
    border-radius: 4px 0 0 4px
}

.dbootstrap table.dijitComboButton {
    border-collapse: separate
}

.dbootstrap label {
    vertical-align: middle
}

.dbootstrap .dijitTextBox {
    display: inline-block;
    font-size: 14px;
    color: #555;
    -webkit-border-radius: 3px;
    border-radius: 3px;
    background-color: #fff;
    border: 1px solid #ccc;
    -webkit-box-shadow: inset 0 1px 1px rgba(0, 0, 0, 0.075);
    box-shadow: inset 0 1px 1px rgba(0, 0, 0, 0.075);
    -webkit-transition: border linear .2s, box-shadow linear .2s;
    -moz-transition: border linear .2s, box-shadow linear .2s;
    -o-transition: border linear .2s, box-shadow linear .2s;
    -ms-transition: border linear .2s, box-shadow linear .2s;
    transition: border linear .2s, box-shadow linear .2s
}

.dbootstrap .dijitTextBoxFocused {
    border-color: rgba(82, 168, 236, 0.8);
    -webkit-box-shadow: inset 0 1px 1px rgba(0, 0, 0, 0.075), 0 0 8px rgba(82, 168, 236, 0.6);
    box-shadow: inset 0 1px 1px rgba(0, 0, 0, 0.075), 0 0 8px rgba(82, 168, 236, 0.6)
}

.dbootstrap .dijitInputContainer {
    padding: 6px 6px
}

.dj_webkit .dbootstrap .dijitInputContainer {
    padding: 4px 4px
}

.dj_webkit .dbootstrap .dijitInputField .dijitInputInner {
    height: 20px
}

.dj_webkit .dbootstrap .dijitInline .dijitInputField .dijitInputInner {
    height: inherit
}

.dbootstrap .dijitPlaceHolder {
    font-style: normal;
    padding: 4px 6px
}

.dbootstrap .dijitTextBoxDisabled,
.dbootstrap .dijitSelect.dijitSelectDisabled .dijitButtonContents {
    background-image: none;
    -webkit-box-shadow: none;
    box-shadow: none;
    background-color: #eee
}

.dbootstrap .dijitTextArea {
    padding: 4px 6px;
    line-height: 1.5;
    -webkit-box-sizing: border-box;
    -moz-box-sizing: border-box;
    box-sizing: border-box
}

.dbootstrap .dijitComboBox input.dijitArrowButtonInner {
    display: none
}

.dbootstrap .dijitComboBoxDisabled .dijitButtonNode,
.dbootstrap .dijitSpinnerDisabled .dijitButtonNode,
.dbootstrap .dijitSelectDisabled .dijitButtonNode {
    background-color: #eee
}

.dbootstrap .dijitTextBoxError {
    color: #b94a48;
    border-color: #b94a48
}

.dbootstrap .dijitTextBoxError.dijitTextBoxFocused {
    -webkit-box-shadow: inset 0 1px 1px rgba(0, 0, 0, 0.075), 0 0 8px #c76e6d;
    box-shadow: inset 0 1px 1px rgba(0, 0, 0, 0.075), 0 0 8px #c76e6d
}

.dbootstrap .dijitValidationContainer {
    display: none
}

.dbootstrap .dijitButtonNode {
    border: none
}

.dbootstrap .dijitButtonNode * {
    vertical-align: baseline
}

.dbootstrap .dijitButtonNode .dijitIcon,
.dbootstrap .dijitArrowButtonInner {
    line-height: 13px
}

.dbootstrap .primary .dijitButtonNode {
    color: #fff;
    text-shadow: 0 -1px 0 rgba(0, 0, 0, 0.25);
    background-color: #04c;
    background-image: -webkit-gradient(linear, left top, left bottom, color-stop(0, #08c), color-stop(1, #04c));
    background-image: -webkit-linear-gradient(top, #08c 0%, #04c 100%);
    background-image: -moz-linear-gradient(top, #08c 0%, #04c 100%);
    background-image: -o-linear-gradient(top, #08c 0%, #04c 100%);
    background-image: -ms-linear-gradient(top, #08c 0%, #04c 100%);
    background-image: linear-gradient(top, #08c 0%, #04c 100%);
    background-repeat: repeat-x;
    border-color: #04c #04c #003aad;
    border-color: rgba(0, 0, 0, 0.1) rgba(0, 0, 0, 0.1) rgba(0, 0, 0, 0.25)
}

.dbootstrap .warning .dijitButtonNode {
    color: #fff;
    text-shadow: 0 -1px 0 rgba(0, 0, 0, 0.25);
    background-color: #f89406;
    background-image: -webkit-gradient(linear, left top, left bottom, color-stop(0, #faa42b), color-stop(1, #f89406));
    background-image: -webkit-linear-gradient(top, #faa42b 0%, #f89406 100%);
    background-image: -moz-linear-gradient(top, #faa42b 0%, #f89406 100%);
    background-image: -o-linear-gradient(top, #faa42b 0%, #f89406 100%);
    background-image: -ms-linear-gradient(top, #faa42b 0%, #f89406 100%);
    background-image: linear-gradient(top, #faa42b 0%, #f89406 100%);
    background-repeat: repeat-x;
    border-color: #f89406 #f89406 #d37e05;
    border-color: rgba(0, 0, 0, 0.1) rgba(0, 0, 0, 0.1) rgba(0, 0, 0, 0.25)
}

.dbootstrap .danger .dijitButtonNode {
    color: #fff;
    text-shadow: 0 -1px 0 rgba(0, 0, 0, 0.25);
    background-color: #bd362f;
    background-image: -webkit-gradient(linear, left top, left bottom, color-stop(0, #ee5f5b), color-stop(1, #bd362f));
    background-image: -webkit-linear-gradient(top, #ee5f5b 0%, #bd362f 100%);
    background-image: -moz-linear-gradient(top, #ee5f5b 0%, #bd362f 100%);
    background-image: -o-linear-gradient(top, #ee5f5b 0%, #bd362f 100%);
    background-image: -ms-linear-gradient(top, #ee5f5b 0%, #bd362f 100%);
    background-image: linear-gradient(top, #ee5f5b 0%, #bd362f 100%);
    background-repeat: repeat-x;
    border-color: #bd362f #bd362f #a12e28;
    border-color: rgba(0, 0, 0, 0.1) rgba(0, 0, 0, 0.1) rgba(0, 0, 0, 0.25)
}

.dbootstrap .success .dijitButtonNode {
    color: #fff;
    text-shadow: 0 -1px 0 rgba(0, 0, 0, 0.25);
    background-color: #51a351;
    background-image: -webkit-gradient(linear, left top, left bottom, color-stop(0, #62c462), color-stop(1, #51a351));
    background-image: -webkit-linear-gradient(top, #62c462 0%, #51a351 100%);
    background-image: -moz-linear-gradient(top, #62c462 0%, #51a351 100%);
    background-image: -o-linear-gradient(top, #62c462 0%, #51a351 100%);
    background-image: -ms-linear-gradient(top, #62c462 0%, #51a351 100%);
    background-image: linear-gradient(top, #62c462 0%, #51a351 100%);
    background-repeat: repeat-x;
    border-color: #51a351 #51a351 #458b45;
    border-color: rgba(0, 0, 0, 0.1) rgba(0, 0, 0, 0.1) rgba(0, 0, 0, 0.25)
}

.dbootstrap .info .dijitButtonNode {
    color: #fff;
    text-shadow: 0 -1px 0 rgba(0, 0, 0, 0.25);
    background-color: #2f96b4;
    background-image: -webkit-gradient(linear, left top, left bottom, color-stop(0, #5bc0de), color-stop(1, #2f96b4));
    background-image: -webkit-linear-gradient(top, #5bc0de 0%, #2f96b4 100%);
    background-image: -moz-linear-gradient(top, #5bc0de 0%, #2f96b4 100%);
    background-image: -o-linear-gradient(top, #5bc0de 0%, #2f96b4 100%);
    background-image: -ms-linear-gradient(top, #5bc0de 0%, #2f96b4 100%);
    background-image: linear-gradient(top, #5bc0de 0%, #2f96b4 100%);
    background-repeat: repeat-x;
    border-color: #2f96b4 #2f96b4 #287f99;
    border-color: rgba(0, 0, 0, 0.1) rgba(0, 0, 0, 0.1) rgba(0, 0, 0, 0.25)
}

.dbootstrap .inverse .dijitButtonNode {
    color: #fff;
    text-shadow: 0 -1px 0 rgba(0, 0, 0, 0.25);
    background-color: #222;
    background-image: -webkit-gradient(linear, left top, left bottom, color-stop(0, #444), color-stop(1, #222));
    background-image: -webkit-linear-gradient(top, #444 0%, #222 100%);
    background-image: -moz-linear-gradient(top, #444 0%, #222 100%);
    background-image: -o-linear-gradient(top, #444 0%, #222 100%);
    background-image: -ms-linear-gradient(top, #444 0%, #222 100%);
    background-image: linear-gradient(top, #444 0%, #222 100%);
    background-repeat: repeat-x;
    border-color: #222 #222 #1d1d1d;
    border-color: rgba(0, 0, 0, 0.1) rgba(0, 0, 0, 0.1) rgba(0, 0, 0, 0.25)
}

.dbootstrap .dijitButtonHover .dijitButtonNode,
.dbootstrap .dijitDropDownButtonHover .dijitButtonNode,
.dbootstrap .dijitComboButton .dijitButtonNodeHover,
.dbootstrap .dijitComboButton .dijitDownArrowButtonHover,
.dbootstrap .dijitToggleButtonHover .dijitButtonNode,
.dbootstrap .dijitDropDownButtonActive .dijitButtonNode {
    text-decoration: none;
    background-position: 0 -15px;
    -webkit-transition: background-position .1s linear;
    -moz-transition: background-position .1s linear;
    -o-transition: background-position .1s linear;
    -ms-transition: background-position .1s linear;
    transition: background-position .1s linear
}

.dbootstrap .dijitButtonActive .dijitButtonNode,
.dbootstrap .dijitComboButton .dijitButtonNodeActive,
.dbootstrap .dijitToggleButtonActive .dijitButtonNode,
.dbootstrap .dijitToggleButtonChecked .dijitButtonNode,
.dbootstrap .dijitComboButton .dijitArrowButton.dijitHasDropDownOpen {
    background-image: none;
    outline: 0;
    -webkit-box-shadow: inset 0 2px 4px rgba(0, 0, 0, 0.15), 0 1px 2px rgba(0, 0, 0, 0.05);
    box-shadow: inset 0 2px 4px rgba(0, 0, 0, 0.15), 0 1px 2px rgba(0, 0, 0, 0.05)
}

.dbootstrap .dijitButtonDisabled .dijitButtonNode,
.dbootstrap .dijitDropDownButtonDisabled .dijitButtonNode,
.dbootstrap .dijitComboButtonDisabled .dijitButtonNode,
.dbootstrap .dijitToggleButtonDisabled .dijitButtonNode,
.dbootstrap .dijitComboBoxDisabled .dijitButtonNode,
.dbootstrap .dijitSpinnerDisabled .dijitButtonNode,
.dbootstrap .dijitSelectDisabled .dijitButtonNode {
    cursor: not-allowed;
    background-image: none;
    opacity: .65;
    filter: alpha(opacity=65);
    -ms-filter: "progid:DXImageTransform.Microsoft.Alpha(Opacity=65)";
    -webkit-box-shadow: none;
    box-shadow: none
}

.dbootstrap .dijitToggleButtonDisabled.dijitToggleButtonChecked .dijitButtonNode {
    -webkit-box-shadow: inset 0 2px 4px rgba(0, 0, 0, 0.15), 0 1px 2px rgba(0, 0, 0, 0.05);
    box-shadow: inset 0 2px 4px rgba(0, 0, 0, 0.15), 0 1px 2px rgba(0, 0, 0, 0.05)
}

.dbootstrap .dijitButtonText {
    padding: 0 .3em;
    text-align: center
}

.dbootstrap .dijitArrowButtonInner {
    height: auto;
    width: auto
}

.dbootstrap .dijitComboButton td.dijitStretch,
.dbootstrap .dijitComboButton td.dijitArrowButton {
    display: table-cell
}

.dbootstrap .dijitComboButton .dijitArrowButton,
.dbootstrap .dijitComboBox .dijitButtonNode.dijitArrowButton,
.dbootstrap .dijitSpinnerButtonContainer.dijitButtonNode,
.dbootstrap .dijitSelect .dijitButtonNode.dijitArrowButton {
    border-left-width: 0;
    padding: 6px 10px;
    -webkit-border-radius: 0 4px 4px 0;
    border-radius: 0 4px 4px 0
}

.dbootstrap .dijitComboButton .dijitStretch {
    -webkit-border-radius: 4px 0 0 4px;
    border-radius: 4px 0 0 4px
}

.dbootstrap table.dijitComboButton {
    border-collapse: separate
}

.dbootstrap .well,
.dbootstrap fieldset {
    min-height: 20px;
    padding: 19px;
    margin-bottom: 20px;
    background-color: #f5f5f5;
    border: 1px solid #e4e4e4;
    -webkit-border-radius: 4px;
    border-radius: 4px;
    -webkit-box-shadow: inset 0 1px 1px rgba(0, 0, 0, 0.05);
    box-shadow: inset 0 1px 1px rgba(0, 0, 0, 0.05);
}

.dbootstrap .well blockquote,
.dbootstrap fieldset blockquote {
    border-color: #ddd;
    border-color: rgba(0, 0, 0, 0.15)
}

.dbootstrap .well-large {
    padding: 24px;
    -webkit-border-radius: 6px;
    border-radius: 6px
}

.dbootstrap .well-small {
    padding: 9px;
    -webkit-border-radius: 3px;
    border-radius: 3px
}

.dbootstrap .dijitButtonNode {
    border: none
}

.dbootstrap .dijitButtonNode * {
    vertical-align: baseline
}

.dbootstrap .dijitButtonNode .dijitIcon,
.dbootstrap .dijitArrowButtonInner {
    line-height: 13px
}

.dbootstrap .primary .dijitButtonNode {
    color: #fff;
    text-shadow: 0 -1px 0 rgba(0, 0, 0, 0.25);
    background-color: #04c;
    background-image: -webkit-gradient(linear, left top, left bottom, color-stop(0, #08c), color-stop(1, #04c));
    background-image: -webkit-linear-gradient(top, #08c 0%, #04c 100%);
    background-image: -moz-linear-gradient(top, #08c 0%, #04c 100%);
    background-image: -o-linear-gradient(top, #08c 0%, #04c 100%);
    background-image: -ms-linear-gradient(top, #08c 0%, #04c 100%);
    background-image: linear-gradient(top, #08c 0%, #04c 100%);
    background-repeat: repeat-x;
    border-color: #04c #04c #003aad;
    border-color: rgba(0, 0, 0, 0.1) rgba(0, 0, 0, 0.1) rgba(0, 0, 0, 0.25)
}

.dbootstrap .warning .dijitButtonNode {
    color: #fff;
    text-shadow: 0 -1px 0 rgba(0, 0, 0, 0.25);
    background-color: #f89406;
    background-image: -webkit-gradient(linear, left top, left bottom, color-stop(0, #faa42b), color-stop(1, #f89406));
    background-image: -webkit-linear-gradient(top, #faa42b 0%, #f89406 100%);
    background-image: -moz-linear-gradient(top, #faa42b 0%, #f89406 100%);
    background-image: -o-linear-gradient(top, #faa42b 0%, #f89406 100%);
    background-image: -ms-linear-gradient(top, #faa42b 0%, #f89406 100%);
    background-image: linear-gradient(top, #faa42b 0%, #f89406 100%);
    background-repeat: repeat-x;
    border-color: #f89406 #f89406 #d37e05;
    border-color: rgba(0, 0, 0, 0.1) rgba(0, 0, 0, 0.1) rgba(0, 0, 0, 0.25)
}

.dbootstrap .danger .dijitButtonNode {
    color: #fff;
    text-shadow: 0 -1px 0 rgba(0, 0, 0, 0.25);
    background-color: #bd362f;
    background-image: -webkit-gradient(linear, left top, left bottom, color-stop(0, #ee5f5b), color-stop(1, #bd362f));
    background-image: -webkit-linear-gradient(top, #ee5f5b 0%, #bd362f 100%);
    background-image: -moz-linear-gradient(top, #ee5f5b 0%, #bd362f 100%);
    background-image: -o-linear-gradient(top, #ee5f5b 0%, #bd362f 100%);
    background-image: -ms-linear-gradient(top, #ee5f5b 0%, #bd362f 100%);
    background-image: linear-gradient(top, #ee5f5b 0%, #bd362f 100%);
    background-repeat: repeat-x;
    border-color: #bd362f #bd362f #a12e28;
    border-color: rgba(0, 0, 0, 0.1) rgba(0, 0, 0, 0.1) rgba(0, 0, 0, 0.25)
}

.dbootstrap .success .dijitButtonNode {
    color: #fff;
    text-shadow: 0 -1px 0 rgba(0, 0, 0, 0.25);
    background-color: #51a351;
    background-image: -webkit-gradient(linear, left top, left bottom, color-stop(0, #62c462), color-stop(1, #51a351));
    background-image: -webkit-linear-gradient(top, #62c462 0%, #51a351 100%);
    background-image: -moz-linear-gradient(top, #62c462 0%, #51a351 100%);
    background-image: -o-linear-gradient(top, #62c462 0%, #51a351 100%);
    background-image: -ms-linear-gradient(top, #62c462 0%, #51a351 100%);
    background-image: linear-gradient(top, #62c462 0%, #51a351 100%);
    background-repeat: repeat-x;
    border-color: #51a351 #51a351 #458b45;
    border-color: rgba(0, 0, 0, 0.1) rgba(0, 0, 0, 0.1) rgba(0, 0, 0, 0.25)
}

.dbootstrap .info .dijitButtonNode {
    color: #fff;
    text-shadow: 0 -1px 0 rgba(0, 0, 0, 0.25);
    background-color: #2f96b4;
    background-image: -webkit-gradient(linear, left top, left bottom, color-stop(0, #5bc0de), color-stop(1, #2f96b4));
    background-image: -webkit-linear-gradient(top, #5bc0de 0%, #2f96b4 100%);
    background-image: -moz-linear-gradient(top, #5bc0de 0%, #2f96b4 100%);
    background-image: -o-linear-gradient(top, #5bc0de 0%, #2f96b4 100%);
    background-image: -ms-linear-gradient(top, #5bc0de 0%, #2f96b4 100%);
    background-image: linear-gradient(top, #5bc0de 0%, #2f96b4 100%);
    background-repeat: repeat-x;
    border-color: #2f96b4 #2f96b4 #287f99;
    border-color: rgba(0, 0, 0, 0.1) rgba(0, 0, 0, 0.1) rgba(0, 0, 0, 0.25)
}

.dbootstrap .inverse .dijitButtonNode {
    color: #fff;
    text-shadow: 0 -1px 0 rgba(0, 0, 0, 0.25);
    background-color: #222;
    background-image: -webkit-gradient(linear, left top, left bottom, color-stop(0, #444), color-stop(1, #222));
    background-image: -webkit-linear-gradient(top, #444 0%, #222 100%);
    background-image: -moz-linear-gradient(top, #444 0%, #222 100%);
    background-image: -o-linear-gradient(top, #444 0%, #222 100%);
    background-image: -ms-linear-gradient(top, #444 0%, #222 100%);
    background-image: linear-gradient(top, #444 0%, #222 100%);
    background-repeat: repeat-x;
    border-color: #222 #222 #1d1d1d;
    border-color: rgba(0, 0, 0, 0.1) rgba(0, 0, 0, 0.1) rgba(0, 0, 0, 0.25)
}

.dbootstrap .dijitButtonHover .dijitButtonNode,
.dbootstrap .dijitDropDownButtonHover .dijitButtonNode,
.dbootstrap .dijitComboButton .dijitButtonNodeHover,
.dbootstrap .dijitComboButton .dijitDownArrowButtonHover,
.dbootstrap .dijitToggleButtonHover .dijitButtonNode,
.dbootstrap .dijitDropDownButtonActive .dijitButtonNode {
    text-decoration: none;
    background-position: 0 -15px;
    -webkit-transition: background-position .1s linear;
    -moz-transition: background-position .1s linear;
    -o-transition: background-position .1s linear;
    -ms-transition: background-position .1s linear;
    transition: background-position .1s linear
}

.dbootstrap .dijitButtonActive .dijitButtonNode,
.dbootstrap .dijitComboButton .dijitButtonNodeActive,
.dbootstrap .dijitToggleButtonActive .dijitButtonNode,
.dbootstrap .dijitToggleButtonChecked .dijitButtonNode,
.dbootstrap .dijitComboButton .dijitArrowButton.dijitHasDropDownOpen {
    background-image: none;
    outline: 0;
    -webkit-box-shadow: inset 0 2px 4px rgba(0, 0, 0, 0.15), 0 1px 2px rgba(0, 0, 0, 0.05);
    box-shadow: inset 0 2px 4px rgba(0, 0, 0, 0.15), 0 1px 2px rgba(0, 0, 0, 0.05)
}

.dbootstrap .dijitButtonDisabled .dijitButtonNode,
.dbootstrap .dijitDropDownButtonDisabled .dijitButtonNode,
.dbootstrap .dijitComboButtonDisabled .dijitButtonNode,
.dbootstrap .dijitToggleButtonDisabled .dijitButtonNode,
.dbootstrap .dijitComboBoxDisabled .dijitButtonNode,
.dbootstrap .dijitSpinnerDisabled .dijitButtonNode,
.dbootstrap .dijitSelectDisabled .dijitButtonNode {
    cursor: not-allowed;
    background-image: none;
    opacity: .65;
    filter: alpha(opacity=65);
    -ms-filter: "progid:DXImageTransform.Microsoft.Alpha(Opacity=65)";
    -webkit-box-shadow: none;
    box-shadow: none
}

.dbootstrap .dijitToggleButtonDisabled.dijitToggleButtonChecked .dijitButtonNode {
    -webkit-box-shadow: inset 0 2px 4px rgba(0, 0, 0, 0.15), 0 1px 2px rgba(0, 0, 0, 0.05);
    box-shadow: inset 0 2px 4px rgba(0, 0, 0, 0.15), 0 1px 2px rgba(0, 0, 0, 0.05)
}

.dbootstrap .dijitButtonText {
    padding: 0 .3em;
    text-align: center
}

.dbootstrap .dijitArrowButtonInner {
    height: auto;
    width: auto
}

.dbootstrap .dijitComboButton td.dijitStretch,
.dbootstrap .dijitComboButton td.dijitArrowButton {
    display: table-cell
}

.dbootstrap .dijitComboButton .dijitArrowButton,
.dbootstrap .dijitComboBox .dijitButtonNode.dijitArrowButton,
.dbootstrap .dijitSpinnerButtonContainer.dijitButtonNode,
.dbootstrap .dijitSelect .dijitButtonNode.dijitArrowButton {
    border-left-width: 0;
    padding: 6px 10px;
    -webkit-border-radius: 0 4px 4px 0;
    border-radius: 0 4px 4px 0
}

.dbootstrap .dijitComboButton .dijitStretch {
    -webkit-border-radius: 4px 0 0 4px;
    border-radius: 4px 0 0 4px
}

.dbootstrap table.dijitComboButton {
    border-collapse: separate
}

.dbootstrap label {
    vertical-align: middle
}

.dbootstrap .dijitTextBox {
    display: inline-block;
    font-size: 14px;
    color: #555;
    -webkit-border-radius: 3px;
    border-radius: 3px;
    background-color: #fff;
    border: 1px solid #ccc;
    -webkit-box-shadow: inset 0 1px 1px rgba(0, 0, 0, 0.075);
    box-shadow: inset 0 1px 1px rgba(0, 0, 0, 0.075);
    -webkit-transition: border linear .2s, box-shadow linear .2s;
    -moz-transition: border linear .2s, box-shadow linear .2s;
    -o-transition: border linear .2s, box-shadow linear .2s;
    -ms-transition: border linear .2s, box-shadow linear .2s;
    transition: border linear .2s, box-shadow linear .2s
}

.dbootstrap .dijitTextBoxFocused {
    border-color: rgba(82, 168, 236, 0.8);
    -webkit-box-shadow: inset 0 1px 1px rgba(0, 0, 0, 0.075), 0 0 8px rgba(82, 168, 236, 0.6);
    box-shadow: inset 0 1px 1px rgba(0, 0, 0, 0.075), 0 0 8px rgba(82, 168, 236, 0.6)
}

.dbootstrap .dijitInputContainer {
    padding: 6px 6px
}

.dj_webkit .dbootstrap .dijitInputContainer {
    padding: 4px 4px
}

.dj_webkit .dbootstrap .dijitInputField .dijitInputInner {
    height: 20px
}

.dj_webkit .dbootstrap .dijitInline .dijitInputField .dijitInputInner {
    height: inherit
}

.dbootstrap .dijitPlaceHolder {
    font-style: normal;
    padding: 4px 6px
}

.dbootstrap .dijitTextBoxDisabled,
.dbootstrap .dijitSelect.dijitSelectDisabled .dijitButtonContents {
    background-image: none;
    -webkit-box-shadow: none;
    box-shadow: none;
    background-color: #eee
}

.dbootstrap .dijitTextArea {
    padding: 4px 6px;
    line-height: 1.5;
    -webkit-box-sizing: border-box;
    -moz-box-sizing: border-box;
    box-sizing: border-box
}

.dbootstrap .dijitComboBox input.dijitArrowButtonInner {
    display: none
}

.dbootstrap .dijitComboBoxDisabled .dijitButtonNode,
.dbootstrap .dijitSpinnerDisabled .dijitButtonNode,
.dbootstrap .dijitSelectDisabled .dijitButtonNode {
    background-color: #eee
}

.dbootstrap .dijitTextBoxError {
    color: #b94a48;
    border-color: #b94a48
}

.dbootstrap .dijitTextBoxError.dijitTextBoxFocused {
    -webkit-box-shadow: inset 0 1px 1px rgba(0, 0, 0, 0.075), 0 0 8px #c76e6d;
    box-shadow: inset 0 1px 1px rgba(0, 0, 0, 0.075), 0 0 8px #c76e6d
}

.dbootstrap .dijitValidationContainer {
    display: none
}

.dj_webkit .dbootstrap .dijitSpinnerButtonContainer.dijitButtonNode {
    padding: 4px 10px !important
}

.dbootstrap .dijitCheckBox,
.dbootstrap .dijitRadio {
    border: 1px solid #999;
    -webkit-box-shadow: inset 1px 1px 1px 0 rgba(1, 1, 1, 0.2);
    box-shadow: inset 1px 1px 1px 0 rgba(1, 1, 1, 0.2);
    text-align: center;
    -webkit-border-radius: 2px;
    border-radius: 2px;
    padding: 1px;
    background-color: #fff;
    position: relative
}

.dbootstrap .dijitCheckBox input,
.dbootstrap .dijitRadio input {
    position: absolute;
    top: 0;
    left: 0;
    height: 100%;
    width: 100%
}

.dbootstrap .dijitCheckBox:before,
.dbootstrap .dijitRadio:before {
    vertical-align: top
}

.dbootstrap .dijitRadio input {
    position: absolute;
    top: 0;
    left: 0;
    height: 100%;
    width: 100%;
    margin: 0;
}

.dbootstrap .dijitCheckBoxDisabled,
.dbootstrap .dijitRadioDisabled {
    opacity: .65;
    filter: alpha(opacity=65);
    -ms-filter: "progid:DXImageTransform.Microsoft.Alpha(Opacity=65)";
    background-color: #eee
}

.dbootstrap .dijitRadio {
    -webkit-border-radius: 20px;
    border-radius: 20px;
    line-height: 12px;
}

.dbootstrap .dijitSlider {
    color: #999
}

.dbootstrap .dijitSliderRemainingBar,
.dbootstrap .dijitSliderBumperH {
    border: none;
    background-image: -webkit-gradient(linear, center top, center bottom, color-stop(0, #f5f5f5), color-stop(1, #f9f9f9));
    background-image: -webkit-linear-gradient(center top, #f5f5f5 0%, #f9f9f9 100%);
    background-image: -moz-linear-gradient(center top, #f5f5f5 0%, #f9f9f9 100%);
    background-image: -o-linear-gradient(center top, #f5f5f5 0%, #f9f9f9 100%);
    background-image: -ms-linear-gradient(center top, #f5f5f5 0%, #f9f9f9 100%);
    background-image: linear-gradient(center top, #f5f5f5 0%, #f9f9f9 100%);
    -webkit-box-shadow: inset 2px 1px 2px rgba(0, 0, 0, 0.1);
    box-shadow: inset 2px 1px 2px rgba(0, 0, 0, 0.1)
}

.dbootstrap .dijitSliderProgressBar,
.dbootstrap .dijitSliderBumperH.dijitSliderLeftBumper {
    border: none;
    background-color: #149dbf;
    background-image: -webkit-gradient(linear, center top, center bottom, color-stop(0, #149bdf), color-stop(1, #0480be));
    background-image: -webkit-linear-gradient(center top, #149bdf 0%, #0480be 100%);
    background-image: -moz-linear-gradient(center top, #149bdf 0%, #0480be 100%);
    background-image: -o-linear-gradient(center top, #149bdf 0%, #0480be 100%);
    background-image: -ms-linear-gradient(center top, #149bdf 0%, #0480be 100%);
    background-image: linear-gradient(center top, #149bdf 0%, #0480be 100%);
    -webkit-box-shadow: inset 0 -1px 0 rgba(0, 0, 0, 0.15);
    box-shadow: inset 0 -1px 0 rgba(0, 0, 0, 0.15)
}

.dbootstrap .dijitSliderImageHandle {
    border: 1px solid rgba(0, 0, 0, 0.15);
    background-color: #fff
}

.dbootstrap .dijitRuleMark {
    border-color: #999
}

.dbootstrap .dijitSliderBarH {
    height: 1em
}

.dbootstrap .dijitSliderImageHandleH {
    -webkit-box-shadow: 1px 0 2px rgba(0, 0, 0, 0.15);
    box-shadow: 1px 0 2px rgba(0, 0, 0, 0.15);
    width: 11px;
    height: 1.5em
}

.dbootstrap .dijitSliderBumperH {
    height: 1em
}

.dbootstrap .dijitSliderBumperH.dijitSliderRightBumper {
    border-bottom-right-radius: 4px;
    border-top-right-radius: 4px;
    margin-left: -4px;
    padding-right: 4px
}

.dbootstrap .dijitSliderBumperH.dijitSliderLeftBumper {
    border-bottom-left-radius: 4px;
    border-top-left-radius: 4px
}

.dbootstrap .dijitRuleLabelsContainerH {
    padding-bottom: 5px
}

.dbootstrap .dijitSliderBarV {
    width: 1em
}

.dbootstrap .dijitSliderV .dijitSliderRemainingBar,
.dbootstrap .dijitSliderBumperV {
    border: none;
    background-image: -webkit-gradient(linear, center top, center bottom, color-stop(0, #f5f5f5), color-stop(1, #f9f9f9));
    background-image: -webkit-linear-gradient(center top, #f5f5f5 0%, #f9f9f9 100%);
    background-image: -moz-linear-gradient(center top, #f5f5f5 0%, #f9f9f9 100%);
    background-image: -o-linear-gradient(center top, #f5f5f5 0%, #f9f9f9 100%);
    background-image: -ms-linear-gradient(center top, #f5f5f5 0%, #f9f9f9 100%);
    background-image: linear-gradient(center top, #f5f5f5 0%, #f9f9f9 100%);
    -webkit-box-shadow: inset 2px -2px 2px rgba(0, 0, 0, 0.1);
    box-shadow: inset 2px -2px 2px rgba(0, 0, 0, 0.1)
}

.dbootstrap .dijitSliderV .dijitSliderProgressBar,
.dbootstrap .dijitSliderBumperV.dijitSliderBottomBumper {
    border: none;
    background-image: -webkit-gradient(linear, left center, right center, color-stop(0, #149bdf), color-stop(1, #0480be));
    background-image: -webkit-linear-gradient(left center, #149bdf 0%, #0480be 100%);
    background-image: -moz-linear-gradient(left center, #149bdf 0%, #0480be 100%);
    background-image: -o-linear-gradient(left center, #149bdf 0%, #0480be 100%);
    background-image: -ms-linear-gradient(left center, #149bdf 0%, #0480be 100%);
    background-image: linear-gradient(left center, #149bdf 0%, #0480be 100%);
    -webkit-box-shadow: inset -1px 0 0 rgba(0, 0, 0, 0.15);
    box-shadow: inset -1px 0 0 rgba(0, 0, 0, 0.15)
}

.dbootstrap .dijitSliderImageHandleV {
    -webkit-box-shadow: 0 1px 2px rgba(0, 0, 0, 0.15);
    box-shadow: 0 1px 2px rgba(0, 0, 0, 0.15);
    width: 1.5em;
    height: 11px
}

.dbootstrap .dijitSliderBumperV {
    width: 1em
}

.dbootstrap .dijitSliderBumperV.dijitSliderTopBumper {
    border-top-left-radius: 4px;
    border-top-right-radius: 4px;
    margin-bottom: -4px;
    padding-top: 4px
}

.dbootstrap .dijitSliderBumperV.dijitSliderBottomBumper {
    border-bottom-left-radius: 4px;
    border-bottom-right-radius: 4px
}

.dbootstrap .dijitRuleLabelsContainerV {
    margin: 0 5px
}

.dbootstrap .dijitSliderDisabled {
    opacity: .65;
    filter: alpha(opacity=65);
    -ms-filter: "progid:DXImageTransform.Microsoft.Alpha(Opacity=65)"
}

.dbootstrap .well,
.dbootstrap fieldset {
    min-height: 20px;
    padding: 19px;
    margin-bottom: 20px;
    background-color: #f5f5f5;
    border: 1px solid #e4e4e4;
    -webkit-border-radius: 4px;
    border-radius: 4px;
    -webkit-box-shadow: inset 0 1px 1px rgba(0, 0, 0, 0.05);
    box-shadow: inset 0 1px 1px rgba(0, 0, 0, 0.05);
}

.dbootstrap .well blockquote,
.dbootstrap fieldset blockquote {
    border-color: #ddd;
    border-color: rgba(0, 0, 0, 0.15)
}

.dbootstrap .well-large {
    padding: 24px;
    -webkit-border-radius: 6px;
    border-radius: 6px
}

.dbootstrap .well-small {
    padding: 9px;
    -webkit-border-radius: 3px;
    border-radius: 3px
}

.dbootstrap .dijitButtonNode {
    border: none
}

.dbootstrap .dijitButtonNode * {
    vertical-align: baseline
}

.dbootstrap .dijitButtonNode .dijitIcon,
.dbootstrap .dijitArrowButtonInner {
    line-height: 13px
}

.dbootstrap .dijitButton .dijitButtonNode:not(.dbootstrap .dijitButton .button-unicredit .dijitButtonNode),
.dbootstrap .dijitDropDownButton .dijitButtonNode,
.dbootstrap .dijitComboButton .dijitButtonNode,
.dbootstrap .dijitToggleButton .dijitButtonNode,
.dbootstrap .dijitComboBox .dijitButtonNode,
.dbootstrap .dijitSelect .dijitButtonNode {
    display: block;
    padding: 6px 14px;
    margin-bottom: 0;
    font-size: 14px;
    text-align: center;
    vertical-align: middle;
    cursor: pointer;
    color: #333;
    text-shadow: 0 1px 1px rgba(255, 255, 255, 0.75);
    background-color: #e6e6e6;
    background-image: -webkit-gradient(linear, left top, left bottom, color-stop(0, #fff), color-stop(1, #e6e6e6));
    background-image: -webkit-linear-gradient(top, #fff 0%, #e6e6e6 100%);
    background-image: -moz-linear-gradient(top, #fff 0%, #e6e6e6 100%);
    background-image: -o-linear-gradient(top, #fff 0%, #e6e6e6 100%);
    background-image: -ms-linear-gradient(top, #fff 0%, #e6e6e6 100%);
    background-image: linear-gradient(top, #fff 0%, #e6e6e6 100%);
    background-repeat: repeat-x;
    border-color: #e6e6e6 #e6e6e6 #c4c4c4;
    border-color: rgba(0, 0, 0, 0.1) rgba(0, 0, 0, 0.1) rgba(0, 0, 0, 0.25);
    border: 1px solid #bbb;
    border-bottom-color: #a8a8a8;
    -webkit-border-radius: 4px;
    border-radius: 4px;
    -webkit-box-shadow: inset 0 1px 0 rgba(255, 255, 255, 0.2), 0 1px 2px rgba(0, 0, 0, 0.05);
    box-shadow: inset 0 1px 0 rgba(255, 255, 255, 0.2), 0 1px 2px rgba(0, 0, 0, 0.05)
}

.dbootstrap .primary .dijitButtonNode {
    color: #fff;
    text-shadow: 0 -1px 0 rgba(0, 0, 0, 0.25);
    background-color: #04c;
    background-image: -webkit-gradient(linear, left top, left bottom, color-stop(0, #08c), color-stop(1, #04c));
    background-image: -webkit-linear-gradient(top, #08c 0%, #04c 100%);
    background-image: -moz-linear-gradient(top, #08c 0%, #04c 100%);
    background-image: -o-linear-gradient(top, #08c 0%, #04c 100%);
    background-image: -ms-linear-gradient(top, #08c 0%, #04c 100%);
    background-image: linear-gradient(top, #08c 0%, #04c 100%);
    background-repeat: repeat-x;
    border-color: #04c #04c #003aad;
    border-color: rgba(0, 0, 0, 0.1) rgba(0, 0, 0, 0.1) rgba(0, 0, 0, 0.25)
}

.dbootstrap .warning .dijitButtonNode {
    color: #fff;
    text-shadow: 0 -1px 0 rgba(0, 0, 0, 0.25);
    background-color: #f89406;
    background-image: -webkit-gradient(linear, left top, left bottom, color-stop(0, #faa42b), color-stop(1, #f89406));
    background-image: -webkit-linear-gradient(top, #faa42b 0%, #f89406 100%);
    background-image: -moz-linear-gradient(top, #faa42b 0%, #f89406 100%);
    background-image: -o-linear-gradient(top, #faa42b 0%, #f89406 100%);
    background-image: -ms-linear-gradient(top, #faa42b 0%, #f89406 100%);
    background-image: linear-gradient(top, #faa42b 0%, #f89406 100%);
    background-repeat: repeat-x;
    border-color: #f89406 #f89406 #d37e05;
    border-color: rgba(0, 0, 0, 0.1) rgba(0, 0, 0, 0.1) rgba(0, 0, 0, 0.25)
}

.dbootstrap .danger .dijitButtonNode {
    color: #fff;
    text-shadow: 0 -1px 0 rgba(0, 0, 0, 0.25);
    background-color: #bd362f;
    background-image: -webkit-gradient(linear, left top, left bottom, color-stop(0, #ee5f5b), color-stop(1, #bd362f));
    background-image: -webkit-linear-gradient(top, #ee5f5b 0%, #bd362f 100%);
    background-image: -moz-linear-gradient(top, #ee5f5b 0%, #bd362f 100%);
    background-image: -o-linear-gradient(top, #ee5f5b 0%, #bd362f 100%);
    background-image: -ms-linear-gradient(top, #ee5f5b 0%, #bd362f 100%);
    background-image: linear-gradient(top, #ee5f5b 0%, #bd362f 100%);
    background-repeat: repeat-x;
    border-color: #bd362f #bd362f #a12e28;
    border-color: rgba(0, 0, 0, 0.1) rgba(0, 0, 0, 0.1) rgba(0, 0, 0, 0.25)
}

.dbootstrap .success .dijitButtonNode {
    color: #fff;
    text-shadow: 0 -1px 0 rgba(0, 0, 0, 0.25);
    background-color: #51a351;
    background-image: -webkit-gradient(linear, left top, left bottom, color-stop(0, #62c462), color-stop(1, #51a351));
    background-image: -webkit-linear-gradient(top, #62c462 0%, #51a351 100%);
    background-image: -moz-linear-gradient(top, #62c462 0%, #51a351 100%);
    background-image: -o-linear-gradient(top, #62c462 0%, #51a351 100%);
    background-image: -ms-linear-gradient(top, #62c462 0%, #51a351 100%);
    background-image: linear-gradient(top, #62c462 0%, #51a351 100%);
    background-repeat: repeat-x;
    border-color: #51a351 #51a351 #458b45;
    border-color: rgba(0, 0, 0, 0.1) rgba(0, 0, 0, 0.1) rgba(0, 0, 0, 0.25)
}

.dbootstrap .info .dijitButtonNode {
    color: #fff;
    text-shadow: 0 -1px 0 rgba(0, 0, 0, 0.25);
    background-color: #2f96b4;
    background-image: -webkit-gradient(linear, left top, left bottom, color-stop(0, #5bc0de), color-stop(1, #2f96b4));
    background-image: -webkit-linear-gradient(top, #5bc0de 0%, #2f96b4 100%);
    background-image: -moz-linear-gradient(top, #5bc0de 0%, #2f96b4 100%);
    background-image: -o-linear-gradient(top, #5bc0de 0%, #2f96b4 100%);
    background-image: -ms-linear-gradient(top, #5bc0de 0%, #2f96b4 100%);
    background-image: linear-gradient(top, #5bc0de 0%, #2f96b4 100%);
    background-repeat: repeat-x;
    border-color: #2f96b4 #2f96b4 #287f99;
    border-color: rgba(0, 0, 0, 0.1) rgba(0, 0, 0, 0.1) rgba(0, 0, 0, 0.25)
}

.dbootstrap .inverse .dijitButtonNode {
    color: #fff;
    text-shadow: 0 -1px 0 rgba(0, 0, 0, 0.25);
    background-color: #222;
    background-image: -webkit-gradient(linear, left top, left bottom, color-stop(0, #444), color-stop(1, #222));
    background-image: -webkit-linear-gradient(top, #444 0%, #222 100%);
    background-image: -moz-linear-gradient(top, #444 0%, #222 100%);
    background-image: -o-linear-gradient(top, #444 0%, #222 100%);
    background-image: -ms-linear-gradient(top, #444 0%, #222 100%);
    background-image: linear-gradient(top, #444 0%, #222 100%);
    background-repeat: repeat-x;
    border-color: #222 #222 #1d1d1d;
    border-color: rgba(0, 0, 0, 0.1) rgba(0, 0, 0, 0.1) rgba(0, 0, 0, 0.25)
}

.dbootstrap .dijitButtonHover .dijitButtonNode,
.dbootstrap .dijitDropDownButtonHover .dijitButtonNode,
.dbootstrap .dijitComboButton .dijitButtonNodeHover,
.dbootstrap .dijitComboButton .dijitDownArrowButtonHover,
.dbootstrap .dijitToggleButtonHover .dijitButtonNode,
.dbootstrap .dijitDropDownButtonActive .dijitButtonNode {
    text-decoration: none;
    background-position: 0 -15px;
    -webkit-transition: background-position .1s linear;
    -moz-transition: background-position .1s linear;
    -o-transition: background-position .1s linear;
    -ms-transition: background-position .1s linear;
    transition: background-position .1s linear
}

.dbootstrap .dijitButtonActive .dijitButtonNode,
.dbootstrap .dijitComboButton .dijitButtonNodeActive,
.dbootstrap .dijitToggleButtonActive .dijitButtonNode,
.dbootstrap .dijitToggleButtonChecked .dijitButtonNode,
.dbootstrap .dijitComboButton .dijitArrowButton.dijitHasDropDownOpen {
    background-image: none;
    outline: 0;
    -webkit-box-shadow: inset 0 2px 4px rgba(0, 0, 0, 0.15), 0 1px 2px rgba(0, 0, 0, 0.05);
    box-shadow: inset 0 2px 4px rgba(0, 0, 0, 0.15), 0 1px 2px rgba(0, 0, 0, 0.05)
}

.dbootstrap .dijitButtonDisabled .dijitButtonNode,
.dbootstrap .dijitDropDownButtonDisabled .dijitButtonNode,
.dbootstrap .dijitComboButtonDisabled .dijitButtonNode,
.dbootstrap .dijitToggleButtonDisabled .dijitButtonNode,
.dbootstrap .dijitComboBoxDisabled .dijitButtonNode,
.dbootstrap .dijitSelectDisabled .dijitButtonNode {
    cursor: not-allowed;
    background-image: none;
    opacity: .65;
    filter: alpha(opacity=65);
    -ms-filter: "progid:DXImageTransform.Microsoft.Alpha(Opacity=65)";
    -webkit-box-shadow: none;
    box-shadow: none
}

.dbootstrap .dijitToggleButtonDisabled.dijitToggleButtonChecked .dijitButtonNode {
    -webkit-box-shadow: inset 0 2px 4px rgba(0, 0, 0, 0.15), 0 1px 2px rgba(0, 0, 0, 0.05);
    box-shadow: inset 0 2px 4px rgba(0, 0, 0, 0.15), 0 1px 2px rgba(0, 0, 0, 0.05)
}

.dbootstrap .dijitButtonText {
    padding: 0 .3em;
    text-align: center
}

.dbootstrap .dijitArrowButtonInner {
    height: auto;
    width: auto
}

.dbootstrap .dijitComboButton td.dijitStretch,
.dbootstrap .dijitComboButton td.dijitArrowButton {
    display: table-cell
}

.dbootstrap .dijitComboButton .dijitArrowButton,
.dbootstrap .dijitComboBox .dijitButtonNode.dijitArrowButton,
.dbootstrap .dijitSelect .dijitButtonNode.dijitArrowButton {
    border-left-width: 0;
    padding: 6px 10px;
    -webkit-border-radius: 0 4px 4px 0;
    border-radius: 0 4px 4px 0
}

.dbootstrap .dijitComboButton .dijitStretch {
    -webkit-border-radius: 4px 0 0 4px;
    border-radius: 4px 0 0 4px
}

.dbootstrap table.dijitComboButton {
    border-collapse: separate
}

.dbootstrap label {
    vertical-align: middle
}

.dbootstrap .dijitTextBox {
    display: inline-block;
    font-size: 14px;
    color: #555;
    -webkit-border-radius: 3px;
    border-radius: 3px;
    background-color: #fff;
    border: 1px solid #ccc;
    -webkit-box-shadow: inset 0 1px 1px rgba(0, 0, 0, 0.075);
    box-shadow: inset 0 1px 1px rgba(0, 0, 0, 0.075);
    -webkit-transition: border linear .2s, box-shadow linear .2s;
    -moz-transition: border linear .2s, box-shadow linear .2s;
    -o-transition: border linear .2s, box-shadow linear .2s;
    -ms-transition: border linear .2s, box-shadow linear .2s;
    transition: border linear .2s, box-shadow linear .2s
}

.dbootstrap .dijitTextBoxFocused {
    border-color: rgba(82, 168, 236, 0.8);
    -webkit-box-shadow: inset 0 1px 1px rgba(0, 0, 0, 0.075), 0 0 8px rgba(82, 168, 236, 0.6);
    box-shadow: inset 0 1px 1px rgba(0, 0, 0, 0.075), 0 0 8px rgba(82, 168, 236, 0.6)
}

.dbootstrap .dijitInputContainer {
    padding: 6px 6px
}

.dj_webkit .dbootstrap .dijitInputContainer {
    padding: 4px 4px
}

.dj_webkit .dbootstrap .dijitInputField .dijitInputInner {
    height: 20px
}

.dj_webkit .dbootstrap .dijitInline .dijitInputField .dijitInputInner {
    height: inherit
}

.dbootstrap .dijitPlaceHolder {
    font-style: normal;
    padding: 4px 6px
}

.dbootstrap .dijitTextBoxDisabled,
.dbootstrap .dijitSelect.dijitSelectDisabled .dijitButtonContents {
    background-image: none;
    -webkit-box-shadow: none;
    box-shadow: none;
    background-color: #eee
}

.dbootstrap .dijitTextArea {
    padding: 4px 6px;
    line-height: 1.5;
    -webkit-box-sizing: border-box;
    -moz-box-sizing: border-box;
    box-sizing: border-box
}

.dbootstrap .dijitComboBox input.dijitArrowButtonInner {
    display: none
}

.dbootstrap .dijitComboBoxDisabled .dijitButtonNode,
.dbootstrap .dijitSelectDisabled .dijitButtonNode {
    background-color: #eee
}

.dbootstrap .dijitTextBoxError {
    color: #b94a48;
    border-color: #b94a48
}

.dbootstrap .dijitTextBoxError.dijitTextBoxFocused {
    -webkit-box-shadow: inset 0 1px 1px rgba(0, 0, 0, 0.075), 0 0 8px #c76e6d;
    box-shadow: inset 0 1px 1px rgba(0, 0, 0, 0.075), 0 0 8px #c76e6d
}

.dbootstrap .dijitValidationContainer {
    display: none
}

.dbootstrap .dijitSelect {
    border: none;
    color: #555;
    -webkit-transition: border linear .2s, box-shadow linear .2s;
    -moz-transition: border linear .2s, box-shadow linear .2s;
    -o-transition: border linear .2s, box-shadow linear .2s;
    -ms-transition: border linear .2s, box-shadow linear .2s;
    transition: border linear .2s, box-shadow linear .2s
}

.dbootstrap .dijitSelect .dijitButtonContents {
    background-color: #fff;
    -webkit-box-shadow: inset 0 1px 1px rgba(0, 0, 0, 0.075);
    box-shadow: inset 0 1px 1px rgba(0, 0, 0, 0.075);
    -webkit-border-radius: 3px 0 0 3px;
    border-radius: 3px 0 0 3px;
    border: 1px solid #ccc
}

.dbootstrap .dijitSelectDisabled .dijitButtonContents .dijitButtonText {
    opacity: .5;
    filter: alpha(opacity=50);
    -ms-filter: "progid:DXImageTransform.Microsoft.Alpha(Opacity=50)"
}

.dbootstrap .dijitTimePickerItem {
    font-weight: normal;
    color: #333;
    white-space: nowrap;
    background-color: transparent;
    border: 1px solid transparent
}

.dbootstrap .dijitTimePickerItem .dijitTimePickerItemInner {
    padding-top: 6px;
    padding-bottom: 6px
}

.dbootstrap .dijitTimePickerItemHover,
.dbootstrap .dijitTimePickerItemSelected {
    text-decoration: none;
    color: #fff;
    background-color: #08c;
    background-image: -webkit-gradient(linear, left top, left bottom, color-stop(0, #08c), color-stop(1, #0081c2));
    background-image: -webkit-linear-gradient(top, #08c 0%, #0081c2 100%);
    background-image: -moz-linear-gradient(top, #08c 0%, #0081c2 100%);
    background-image: -o-linear-gradient(top, #08c 0%, #0081c2 100%);
    background-image: -ms-linear-gradient(top, #08c 0%, #0081c2 100%);
    background-image: linear-gradient(top, #08c 0%, #0081c2 100%)
}

.dbootstrap .dijitDialog {
    background-color: #fff;
    border: 1px solid rgba(0, 0, 0, 0.3);
    -webkit-border-radius: 6px;
    border-radius: 6px;
    -webkit-box-shadow: 0 3px 7px rgba(0, 0, 0, 0.3);
    box-shadow: 0 3px 7px rgba(0, 0, 0, 0.3)
}

.dbootstrap .dijitDialogCloseIcon .closeText {
    float: right;
    font-size: 20px;
    font-weight: bold;
    color: #000;
    text-shadow: 0 1px 0 #fff;
    opacity: .2;
    filter: alpha(opacity=20);
    -ms-filter: "progid:DXImageTransform.Microsoft.Alpha(Opacity=20)";
    display: inline;
    position: relative;
    margin-top: 2px
}

.dbootstrap .dijitDialogCloseIconHover .closeText {
    opacity: .4;
    filter: alpha(opacity=40);
    -ms-filter: "progid:DXImageTransform.Microsoft.Alpha(Opacity=40)"
}

.dbootstrap .dijitDialogUnderlay {
    background-color: #000;
    opacity: .8;
    filter: alpha(opacity=80);
    -ms-filter: "progid:DXImageTransform.Microsoft.Alpha(Opacity=80)"
}

.dbootstrap .dijitDialogTitleBar {
    padding: 9px 15px;
    border-bottom: 1px solid #eee
}

.dbootstrap .dijitDialogTitle {
    font-size: 24px;
    font-weight: bold;
    margin: 0
}

.dbootstrap .dijitDialogPaneContentArea {
    padding: 15px
}

.dbootstrap .dijitDialogPaneActionBar {
    padding: 14px 15px 15px;
    margin-bottom: 0;
    text-align: right;
    background-color: #f5f5f5;
    border-top: 1px solid #ddd;
    -webkit-border-radius: 0 0 6px 6px;
    border-radius: 0 0 6px 6px;
    -webkit-box-shadow: inset 0 1px 0 #fff;
    box-shadow: inset 0 1px 0 #fff
}

.dbootstrap .dijitTooltipContainer {
    background-color: #fff;
    border: 1px solid rgba(0, 0, 0, 0.25);
    -webkit-border-radius: 6px;
    border-radius: 6px;
    -webkit-box-shadow: 0 5px 10px rgba(0, 0, 0, 0.2);
    box-shadow: 0 5px 10px rgba(0, 0, 0, 0.2);
    padding: 9px 14px
}

.dbootstrap .dijitTooltipConnector,
.dbootstrap .dijitTooltipConnector:after {
    position: absolute;
    width: 0;
    height: 0;
    display: inline-block;
    border-color: transparent;
    border-style: solid
}

.dbootstrap .dijitTooltipConnector:after {
    content: "";
    z-index: -1
}

.dbootstrap .dijitTooltipAbove {
    padding-bottom: 5px
}

.dbootstrap .dijitTooltipAbove .dijitTooltipConnector {
    bottom: 1px;
    border-width: 5px 5px 0;
    border-top-color: #fff;
}

.dbootstrap .dijitTooltipAbove .dijitTooltipConnector:after {
    border-width: 6px 6px 0;
    border-top-color: rgba(0, 0, 0, 0.25);
    left: -6px;
    bottom: -1px
}

.dbootstrap .dijitTooltipBelow {
    padding-top: 5px
}

.dbootstrap .dijitTooltipBelow .dijitTooltipConnector {
    top: 1px;
    border-width: 0 5px 5px;
    border-bottom-color: #fff;
}

.dbootstrap .dijitTooltipBelow .dijitTooltipConnector:after {
    border-width: 0 6px 6px;
    border-bottom-color: rgba(0, 0, 0, 0.25);
    left: -6px;
    top: -1px
}

.dbootstrap .dijitTooltipLeft {
    padding-right: 5px
}

.dbootstrap .dijitTooltipLeft .dijitTooltipConnector {
    right: 1px;
    border-width: 5px 0 5px 5px;
    border-left-color: #fff;
}

.dbootstrap .dijitTooltipLeft .dijitTooltipConnector:after {
    border-width: 6px 0 6px 6px;
    border-left-color: rgba(0, 0, 0, 0.25);
    bottom: -6px;
    right: -1px
}

.dbootstrap .dijitTooltipRight {
    padding-left: 5px
}

.dbootstrap .dijitTooltipRight .dijitTooltipConnector {
    left: 1px;
    border-width: 5px 5px 5px 0;
    border-right-color: #fff;
}

.dbootstrap .dijitTooltipRight .dijitTooltipConnector:after {
    border-width: 6px 6px 6px 0;
    border-right-color: rgba(0, 0, 0, 0.25);
    bottom: -6px;
    left: -1px
}

.dbootstrap .dijitTooltipABLeft .dijitTooltipConnector {
    left: 20px
}

.dbootstrap .dijitTooltipABRight .dijitTooltipConnector {
    right: 20px
}

.dbootstrap .dijitPopup .dijitCalendar {
    margin-top: 2px;
    -webkit-box-shadow: 0 5px 10px rgba(0, 0, 0, 0.2);
    box-shadow: 0 5px 10px rgba(0, 0, 0, 0.2)
}

.dbootstrap .dijitCalendar {
    background-color: #eee;
    border-collapse: separate;
    -webkit-border-radius: 4px;
    border-radius: 4px;
    border: 1px solid rgba(0, 0, 0, 0.2);
    text-align: center;
    padding: 8px;
    font-size: 12px
}

.dbootstrap .dijitCalendarDateTemplate {
    padding: 3px 7px;
    background-color: #fff
}

.dbootstrap .dijitCalendarDayLabelTemplate {
    padding-bottom: 5px;
    padding-top: 5px;
    font-weight: 500;
    text-shadow: 0 1px 0 rgba(255, 255, 255, 0.8)
}

.dbootstrap .dijitCalendarDateLabel {
    vertical-align: middle
}

.dbootstrap .dijitCalendarPreviousMonth,
.dbootstrap .dijitCalendarNextMonth {
    background-color: #dfe8ff;
    color: #08c
}

.dbootstrap .dijitCalendarSelectedDate {
    background-color: #0074cc;
    color: #fff
}

.dbootstrap .dijitCalendarCurrentDate .dijitCalendarDateLabel {
    text-decoration: underline
}

.dbootstrap .dijitCalendarSelectedYear {
    font-size: 1.3em;
    margin-left: 8px;
    margin-right: 8px
}

.dbootstrap .dijitCalendar tr td:first-child {
    border-left: none
}

.dbootstrap .dijitCalendarYearLabel {
    margin-top: 8px;
    text-shadow: 0 1px 0 rgba(255, 255, 255, 0.8)
}

.dbootstrap .dijitA11ySideArrow {
    display: none
}

.dbootstrap .dijitProgressBar {
    margin: 2px 0
}

.dbootstrap .dijitProgressBarEmpty {
    border: none;
    -webkit-border-radius: 4px;
    border-radius: 4px;
    background-image: -webkit-gradient(linear, center top, center bottom, color-stop(0, #f5f5f5), color-stop(1, #f9f9f9));
    background-image: -webkit-linear-gradient(center top, #f5f5f5 0%, #f9f9f9 100%);
    background-image: -moz-linear-gradient(center top, #f5f5f5 0%, #f9f9f9 100%);
    background-image: -o-linear-gradient(center top, #f5f5f5 0%, #f9f9f9 100%);
    background-image: -ms-linear-gradient(center top, #f5f5f5 0%, #f9f9f9 100%);
    background-image: linear-gradient(center top, #f5f5f5 0%, #f9f9f9 100%);
    -webkit-box-shadow: inset 0 1px 2px rgba(0, 0, 0, 0.1);
    box-shadow: inset 0 1px 2px rgba(0, 0, 0, 0.1)
}

.dbootstrap .dijitProgressBarFull {
    background-color: #149dbf;
    background-image: -webkit-gradient(linear, center top, center bottom, color-stop(0, #149bdf), color-stop(1, #0480be));
    background-image: -webkit-linear-gradient(center top, #149bdf 0%, #0480be 100%);
    background-image: -moz-linear-gradient(center top, #149bdf 0%, #0480be 100%);
    background-image: -o-linear-gradient(center top, #149bdf 0%, #0480be 100%);
    background-image: -ms-linear-gradient(center top, #149bdf 0%, #0480be 100%);
    background-image: linear-gradient(center top, #149bdf 0%, #0480be 100%);
    -webkit-box-shadow: inset 0 -1px 0 rgba(0, 0, 0, 0.15);
    box-shadow: inset 0 -1px 0 rgba(0, 0, 0, 0.15);
    -webkit-transition: width .6s ease;
    -moz-transition: width .6s ease;
    -o-transition: width .6s ease;
    -ms-transition: width .6s ease;
    transition: width .6s ease
}

.dbootstrap .dijitProgressBarTile {
    display: none
}

.dbootstrap .dijitProgressBarLabel {
    color: #fff;
    text-shadow: 0 -1px 0 rgba(0, 0, 0, 0.25)
}

.dbootstrap .dijitProgressBar.danger .dijitProgressBarFull {
    background-color: #ee5f5b;
    background-image: -webkit-gradient(linear, center top, center bottom, color-stop(0, #ee5f5b), color-stop(1, #c43c35));
    background-image: -webkit-linear-gradient(center top, #ee5f5b 0%, #c43c35 100%);
    background-image: -moz-linear-gradient(center top, #ee5f5b 0%, #c43c35 100%);
    background-image: -o-linear-gradient(center top, #ee5f5b 0%, #c43c35 100%);
    background-image: -ms-linear-gradient(center top, #ee5f5b 0%, #c43c35 100%);
    background-image: linear-gradient(center top, #ee5f5b 0%, #c43c35 100%)
}

.dbootstrap .dijitProgressBar.success .dijitProgressBarFull {
    background-color: #62c462;
    background-image: -webkit-gradient(linear, center top, center bottom, color-stop(0, #62c462), color-stop(1, #57a957));
    background-image: -webkit-linear-gradient(center top, #62c462 0%, #57a957 100%);
    background-image: -moz-linear-gradient(center top, #62c462 0%, #57a957 100%);
    background-image: -o-linear-gradient(center top, #62c462 0%, #57a957 100%);
    background-image: -ms-linear-gradient(center top, #62c462 0%, #57a957 100%);
    background-image: linear-gradient(center top, #62c462 0%, #57a957 100%)
}

.dbootstrap .dijitProgressBar.info .dijitProgressBarFull {
    background-color: #5bc0de;
    background-image: -webkit-gradient(linear, center top, center bottom, color-stop(0, #5bc0de), color-stop(1, #339bb9));
    background-image: -webkit-linear-gradient(center top, #5bc0de 0%, #339bb9 100%);
    background-image: -moz-linear-gradient(center top, #5bc0de 0%, #339bb9 100%);
    background-image: -o-linear-gradient(center top, #5bc0de 0%, #339bb9 100%);
    background-image: -ms-linear-gradient(center top, #5bc0de 0%, #339bb9 100%);
    background-image: linear-gradient(center top, #5bc0de 0%, #339bb9 100%)
}

.dbootstrap .dijitProgressBar.warning .dijitProgressBarFull {
    background-color: #faa42b;
    background-image: -webkit-gradient(linear, center top, center bottom, color-stop(0, #faa42b), color-stop(1, #f89406));
    background-image: -webkit-linear-gradient(center top, #faa42b 0%, #f89406 100%);
    background-image: -moz-linear-gradient(center top, #faa42b 0%, #f89406 100%);
    background-image: -o-linear-gradient(center top, #faa42b 0%, #f89406 100%);
    background-image: -ms-linear-gradient(center top, #faa42b 0%, #f89406 100%);
    background-image: linear-gradient(center top, #faa42b 0%, #f89406 100%)
}

.dbootstrap .dijitProgressBar.striped .dijitProgressBarFull,
.dbootstrap .dijitProgressBarIndeterminate .dijitProgressBarFull {
    -webkit-background-size: 40px 40px;
    -moz-background-size: 40px 40px;
    background-size: 40px 40px;
    background-image: -webkit-gradient(linear, left bottom, right top, color-stop(0.25, rgba(255, 255, 255, 0.15)), color-stop(0.25, transparent), color-stop(0.5, transparent), color-stop(0.5, rgba(255, 255, 255, 0.15)), color-stop(0.75, rgba(255, 255, 255, 0.15)), color-stop(0.75, transparent), color-stop(1, transparent)) !important;
    background-image: -webkit-linear-gradient(left bottom, rgba(255, 255, 255, 0.15) 25%, transparent 25%, transparent 50%, rgba(255, 255, 255, 0.15) 50%, rgba(255, 255, 255, 0.15) 75%, transparent 75%, transparent 100%) !important;
    background-image: -moz-linear-gradient(left bottom, rgba(255, 255, 255, 0.15) 25%, transparent 25%, transparent 50%, rgba(255, 255, 255, 0.15) 50%, rgba(255, 255, 255, 0.15) 75%, transparent 75%, transparent 100%) !important;
    background-image: -o-linear-gradient(left bottom, rgba(255, 255, 255, 0.15) 25%, transparent 25%, transparent 50%, rgba(255, 255, 255, 0.15) 50%, rgba(255, 255, 255, 0.15) 75%, transparent 75%, transparent 100%) !important;
    background-image: -ms-linear-gradient(left bottom, rgba(255, 255, 255, 0.15) 25%, transparent 25%, transparent 50%, rgba(255, 255, 255, 0.15) 50%, rgba(255, 255, 255, 0.15) 75%, transparent 75%, transparent 100%) !important;
    background-image: linear-gradient(left bottom, rgba(255, 255, 255, 0.15) 25%, transparent 25%, transparent 50%, rgba(255, 255, 255, 0.15) 50%, rgba(255, 255, 255, 0.15) 75%, transparent 75%, transparent 100%) !important
}

.dbootstrap .dijitProgressBar.animated .dijitProgressBarFull,
.dbootstrap .dijitProgressBarIndeterminate .dijitProgressBarFull {
    -webkit-animation: progress-bar-stripes 2s linear infinite;
    -moz-animation: progress-bar-stripes 2s linear infinite;
    -o-animation: progress-bar-stripes 2s linear infinite;
    -ms-animation: progress-bar-stripes 2s linear infinite;
    animation: progress-bar-stripes 2s linear infinite
}

@-moz-keyframes progress-bar-stripes {
    0% {
        background-position: 40px 0
    }

    100% {
        background-position: 0 0
    }
}

@-webkit-keyframes progress-bar-stripes {
    0% {
        background-position: 40px 0
    }

    100% {
        background-position: 0 0
    }
}

@-o-keyframes progress-bar-stripes {
    0% {
        background-position: 40px 0
    }

    100% {
        background-position: 0 0
    }
}

@-ms-keyframes progress-bar-stripes {
    0% {
        background-position: 40px 0
    }

    100% {
        background-position: 0 0
    }
}

@keyframes progress-bar-stripes {
    0% {
        background-position: 40px 0
    }

    100% {
        background-position: 0 0
    }
}

.dbootstrap .dijitTreeRow {
    padding: 2px 0
}

.dbootstrap .dijitTreeRowSelected,
.dbootstrap .dijitTreeRowSelected.dijitTreeRowHover {
    color: #fff;
    background-color: #08c
}

.dbootstrap .dijitTreeRowHover {
    color: #333;
    background-color: #f5f5f5
}

.dbootstrap .dijitTreeExpando:before {
    cursor: pointer;
    opacity: .3;
    filter: alpha(opacity=30);
    -ms-filter: "progid:DXImageTransform.Microsoft.Alpha(Opacity=30)";
    padding-left: 4px;
    padding-right: 2px
}

.dbootstrap .dijitTreeExpandoLeaf:before {
    cursor: none;
    visibility: hidden
}

.dbootstrap .dijitTreeIcon {
    width: 1em;
    text-align: center
}

.dbootstrap .dijitToolbar {
    overflow: visible;
    margin-bottom: 20px;
    color: #555;
    background-image: -webkit-gradient(linear, left top, left bottom, color-stop(0, #fff), color-stop(1, #f2f2f2));
    background-image: -webkit-linear-gradient(top, #fff 0%, #f2f2f2 100%);
    background-image: -moz-linear-gradient(top, #fff 0%, #f2f2f2 100%);
    background-image: -o-linear-gradient(top, #fff 0%, #f2f2f2 100%);
    background-image: -ms-linear-gradient(top, #fff 0%, #f2f2f2 100%);
    background-image: linear-gradient(top, #fff 0%, #f2f2f2 100%);
    border-bottom: 1px solid #d5d5d5;
    -webkit-box-shadow: 0 1px 4px rgba(0, 0, 0, 0.065);
    box-shadow: 0 1px 4px rgba(0, 0, 0, 0.065);
    padding: 4px
}

.dbootstrap .dijitToolbar .dijitButton,
.dbootstrap .dijitToolbar .dijitDropDownButton,
.dbootstrap .dijitToolbar .dijitComboButton,
.dbootstrap .dijitToolbar .dijitToggleButton {
    margin-left: 2px;
    margin-right: 2px
}

.dbootstrap .dijitToolbar .dijitButton .dijitButtonNode,
.dbootstrap .dijitToolbar .dijitDropDownButton .dijitButtonNode,
.dbootstrap .dijitToolbar .dijitComboButton .dijitButtonNode,
.dbootstrap .dijitToolbar .dijitToggleButton .dijitButtonNode {
    padding: 0
}

.dbootstrap .dijitToolbar .dijitButtonContents {
    padding: 4px 8px
}

.dbootstrap .dijitEditor {
    border: 1px solid #d5d5d5
}

.dbootstrap .dijitEditorDisabled {
    opacity: .65;
    filter: alpha(opacity=65);
    -ms-filter: "progid:DXImageTransform.Microsoft.Alpha(Opacity=65)"
}


html {
    font-family: sans-serif;
    -webkit-text-size-adjust: 100%;
    -ms-text-size-adjust: 100%
}

body {
    margin: 0
}

article,
aside,
details,
figcaption,
figure,
footer,
header,
hgroup,
main,
nav,
section,
summary {
    display: block
}

audio,
canvas,
progress,
video {
    display: inline-block;
    vertical-align: baseline
}

audio:not([controls]) {
    display: none;
    height: 0
}

[hidden],
template {
    display: none
}

a {
    background: 0 0
}

a:active,
a:hover {
    outline: 0
}

abbr[title] {
    border-bottom: 1px dotted
}

b,
strong {
    font-weight: 700
}

dfn {
    font-style: italic
}

h1 {
    margin: .67em 0;
    font-size: 2em
}

mark {
    color: #000;
    background: #ff0
}

small {
    font-size: 80%
}

sub,
sup {
    position: relative;
    font-size: 75%;
    line-height: 0;
    vertical-align: baseline
}

sup {
    top: -.5em
}

sub {
    bottom: -.25em
}

img {
    border: 0
}

svg:not(:root) {
    overflow: hidden
}

figure {
    margin: 1em 40px
}

hr {
    height: 0;
    -webkit-box-sizing: content-box;
    -moz-box-sizing: content-box;
    box-sizing: content-box
}

pre {
    overflow: auto
}

code,
kbd,
pre,
samp {
    font-family: monospace, monospace;
    font-size: 1em
}

button,
input,
optgroup,
select,
textarea {
    margin: 0;
    font: inherit;
    color: inherit
}

button {
    overflow: visible
}

button,
select {
    text-transform: none
}

button,
html input[type=button],
input[type=reset],
input[type=submit] {
    -webkit-appearance: button;
    cursor: pointer
}

button[disabled],
html input[disabled] {
    cursor: default
}

button::-moz-focus-inner,
input::-moz-focus-inner {
    padding: 0;
    border: 0
}

input {
    line-height: normal
}

input[type=checkbox],
input[type=radio] {
    -webkit-box-sizing: border-box;
    -moz-box-sizing: border-box;
    box-sizing: border-box;
    padding: 0
}

input[type=number]::-webkit-inner-spin-button,
input[type=number]::-webkit-outer-spin-button {
    height: auto
}

input[type=search] {
    -webkit-box-sizing: content-box;
    -moz-box-sizing: content-box;
    box-sizing: content-box;
    -webkit-appearance: textfield
}

input[type=search]::-webkit-search-cancel-button,
input[type=search]::-webkit-search-decoration {
    -webkit-appearance: none
}

fieldset {
    padding: .35em .625em .75em;
    margin: 0 2px;
    border: 1px solid silver
}

legend {
    padding: 0;
    border: 0
}

textarea {
    overflow: auto
}

optgroup {
    font-weight: 700
}

table {
    border-spacing: 0;
    border-collapse: collapse
}

td,
th {
    padding: 0
}

@media print {
    * {
        color: #000 !important;
        text-shadow: none !important;
        background: transparent !important;
        -webkit-box-shadow: none !important;
        box-shadow: none !important
    }

    a,
    a:visited {
        text-decoration: underline
    }

    a[href]:after {
        content: " ("attr(href) ")"
    }

    abbr[title]:after {
        content: " ("attr(title) ")"
    }

    a[href^="javascript:"]:after,
    a[href^="#"]:after {
        content: ""
    }

    pre,
    blockquote {
        border: 1px solid #999;
        page-break-inside: avoid
    }

    thead {
        display: table-header-group
    }

    tr,
    img {
        page-break-inside: avoid
    }

    img {
        max-width: 100% !important
    }

    p,
    h2,
    h3 {
        orphans: 3;
        widows: 3
    }

    h2,
    h3 {
        page-break-after: avoid
    }

    select {
        background: #fff !important
    }

    .navbar {
        display: none
    }

    .table td,
    .table th {
        background-color: #fff !important
    }

    .btn>.caret,
    .dropup>.btn>.caret {
        border-top-color: #000 !important
    }

    .label {
        border: 1px solid #000
    }

    .table {
        border-collapse: collapse !important
    }

    .table-bordered th,
    .table-bordered td {
        border: 1px solid #ddd !important
    }
}

@font-face {
    font-family: 'Glyphicons Halflings';
    src: url(../../../../../../cms/!root!/etc/designs/cee2020-ib-core/static/fonts/glyphicons-halflings-regular.eot);
    src: url(../../../../../../cms/!root!/etc/designs/cee2020-ib-core/static/fonts/glyphicons-halflings-regular.eot?#iefix) format('embedded-opentype'), url(../../../../../../cms/!root!/etc/designs/cee2020-ib-core/static/fonts/glyphicons-halflings-regular.woff) format('woff'), url(../../../../../../cms/!root!/etc/designs/cee2020-ib-core/static/fonts/glyphicons-halflings-regular.ttf) format('truetype'), url(../../../../../../cms/!root!/etc/designs/cee2020-ib-core/static/fonts/glyphicons-halflings-regular.svg#glyphicons_halflingsregular) format('svg')
}

.glyphicon {
    position: relative;
    top: 1px;
    display: inline-block;
    font-family: 'Glyphicons Halflings';
    font-style: normal;
    font-weight: 400;
    line-height: 1;
    -webkit-font-smoothing: antialiased;
    -moz-osx-font-smoothing: grayscale
}

.glyphicon-asterisk:before {
    content: "\2a"
}

.glyphicon-plus:before {
    content: "\2b"
}

.glyphicon-euro:before {
    content: "\20ac"
}

.glyphicon-minus:before {
    content: "\2212"
}

.glyphicon-cloud:before {
    content: "\2601"
}

.glyphicon-envelope:before {
    content: "\2709"
}

.glyphicon-pencil:before {
    content: "\270f"
}

.glyphicon-glass:before {
    content: "\e001"
}

.glyphicon-music:before {
    content: "\e002"
}

.glyphicon-search:before {
    content: "\e003"
}

.glyphicon-heart:before {
    content: "\e005"
}

.glyphicon-star:before {
    content: "\e006"
}

.glyphicon-star-empty:before {
    content: "\e007"
}

.glyphicon-user:before {
    content: "\e008"
}

.glyphicon-film:before {
    content: "\e009"
}

.glyphicon-th-large:before {
    content: "\e010"
}

.glyphicon-th:before {
    content: "\e011"
}

.glyphicon-th-list:before {
    content: "\e012"
}

.glyphicon-ok:before {
    content: "\e013"
}

.glyphicon-remove:before {
    content: "\e014"
}

.glyphicon-zoom-in:before {
    content: "\e015"
}

.glyphicon-zoom-out:before {
    content: "\e016"
}

.glyphicon-off:before {
    content: "\e017"
}

.glyphicon-signal:before {
    content: "\e018"
}

.glyphicon-cog:before {
    content: "\e019"
}

.glyphicon-trash:before {
    content: "\e020"
}

.glyphicon-home:before {
    content: "\e021"
}

.glyphicon-file:before {
    content: "\e022"
}

.glyphicon-time:before {
    content: "\e023"
}

.glyphicon-road:before {
    content: "\e024"
}

.glyphicon-download-alt:before {
    content: "\e025"
}

.glyphicon-download:before {
    content: "\e026"
}

.glyphicon-upload:before {
    content: "\e027"
}

.glyphicon-inbox:before {
    content: "\e028"
}

.glyphicon-play-circle:before {
    content: "\e029"
}

.glyphicon-repeat:before {
    content: "\e030"
}

.glyphicon-refresh:before {
    content: "\e031"
}

.glyphicon-list-alt:before {
    content: "\e032"
}

.glyphicon-lock:before {
    content: "\e033"
}

.glyphicon-flag:before {
    content: "\e034"
}

.glyphicon-headphones:before {
    content: "\e035"
}

.glyphicon-volume-off:before {
    content: "\e036"
}

.glyphicon-volume-down:before {
    content: "\e037"
}

.glyphicon-volume-up:before {
    content: "\e038"
}

.glyphicon-qrcode:before {
    content: "\e039"
}

.glyphicon-barcode:before {
    content: "\e040"
}

.glyphicon-tag:before {
    content: "\e041"
}

.glyphicon-tags:before {
    content: "\e042"
}

.glyphicon-book:before {
    content: "\e043"
}

.glyphicon-bookmark:before {
    content: "\e044"
}

.glyphicon-print:before {
    content: "\e045"
}

.glyphicon-camera:before {
    content: "\e046"
}

.glyphicon-font:before {
    content: "\e047"
}

.glyphicon-bold:before {
    content: "\e048"
}

.glyphicon-italic:before {
    content: "\e049"
}

.glyphicon-text-height:before {
    content: "\e050"
}

.glyphicon-text-width:before {
    content: "\e051"
}

.glyphicon-align-left:before {
    content: "\e052"
}

.glyphicon-align-center:before {
    content: "\e053"
}

.glyphicon-align-right:before {
    content: "\e054"
}

.glyphicon-align-justify:before {
    content: "\e055"
}

.glyphicon-list:before {
    content: "\e056"
}

.glyphicon-indent-left:before {
    content: "\e057"
}

.glyphicon-indent-right:before {
    content: "\e058"
}

.glyphicon-facetime-video:before {
    content: "\e059"
}

.glyphicon-picture:before {
    content: "\e060"
}

.glyphicon-map-marker:before {
    content: "\e062"
}

.glyphicon-adjust:before {
    content: "\e063"
}

.glyphicon-tint:before {
    content: "\e064"
}

.glyphicon-edit:before {
    content: "\e065"
}

.glyphicon-share:before {
    content: "\e066"
}

.glyphicon-check:before {
    content: "\e067"
}

.glyphicon-move:before {
    content: "\e068"
}

.glyphicon-step-backward:before {
    content: "\e069"
}

.glyphicon-fast-backward:before {
    content: "\e070"
}

.glyphicon-backward:before {
    content: "\e071"
}

.glyphicon-play:before {
    content: "\e072"
}

.glyphicon-pause:before {
    content: "\e073"
}

.glyphicon-stop:before {
    content: "\e074"
}

.glyphicon-forward:before {
    content: "\e075"
}

.glyphicon-fast-forward:before {
    content: "\e076"
}

.glyphicon-step-forward:before {
    content: "\e077"
}

.glyphicon-eject:before {
    content: "\e078"
}

.glyphicon-chevron-left:before {
    content: "\e079"
}

.glyphicon-chevron-right:before {
    content: "\e080"
}

.glyphicon-plus-sign:before {
    content: "\e081"
}

.glyphicon-minus-sign:before {
    content: "\e082"
}

.glyphicon-remove-sign:before {
    content: "\e083"
}

.glyphicon-ok-sign:before {
    content: "\e084"
}

.glyphicon-question-sign:before {
    content: "\e085"
}

.glyphicon-info-sign:before {
    content: "\e086"
}

.glyphicon-screenshot:before {
    content: "\e087"
}

.glyphicon-remove-circle:before {
    content: "\e088"
}

.glyphicon-ok-circle:before {
    content: "\e089"
}

.glyphicon-ban-circle:before {
    content: "\e090"
}

.glyphicon-arrow-left:before {
    content: "\e091"
}

.glyphicon-arrow-right:before {
    content: "\e092"
}

.glyphicon-arrow-up:before {
    content: "\e093"
}

.glyphicon-arrow-down:before {
    content: "\e094"
}

.glyphicon-share-alt:before {
    content: "\e095"
}

.glyphicon-resize-full:before {
    content: "\e096"
}

.glyphicon-resize-small:before {
    content: "\e097"
}

.glyphicon-exclamation-sign:before {
    content: "\e101"
}

.glyphicon-gift:before {
    content: "\e102"
}

.glyphicon-leaf:before {
    content: "\e103"
}

.glyphicon-fire:before {
    content: "\e104"
}

.glyphicon-eye-open:before {
    content: "\e105"
}

.glyphicon-eye-close:before {
    content: "\e106"
}

.glyphicon-warning-sign:before {
    content: "\e107"
}

.glyphicon-plane:before {
    content: "\e108"
}

.glyphicon-calendar:before {
    content: "\e109"
}

.glyphicon-random:before {
    content: "\e110"
}

.glyphicon-comment:before {
    content: "\e111"
}

.glyphicon-magnet:before {
    content: "\e112"
}

.glyphicon-chevron-up:before {
    content: "\e113"
}

.glyphicon-chevron-down:before {
    content: "\e114"
}

.glyphicon-retweet:before {
    content: "\e115"
}

.glyphicon-shopping-cart:before {
    content: "\e116"
}

.glyphicon-folder-close:before {
    content: "\e117"
}

.glyphicon-folder-open:before {
    content: "\e118"
}

.glyphicon-resize-vertical:before {
    content: "\e119"
}

.glyphicon-resize-horizontal:before {
    content: "\e120"
}

.glyphicon-hdd:before {
    content: "\e121"
}

.glyphicon-bullhorn:before {
    content: "\e122"
}

.glyphicon-bell:before {
    content: "\e123"
}

.glyphicon-certificate:before {
    content: "\e124"
}

.glyphicon-thumbs-up:before {
    content: "\e125"
}

.glyphicon-thumbs-down:before {
    content: "\e126"
}

.glyphicon-hand-right:before {
    content: "\e127"
}

.glyphicon-hand-left:before {
    content: "\e128"
}

.glyphicon-hand-up:before {
    content: "\e129"
}

.glyphicon-hand-down:before {
    content: "\e130"
}

.glyphicon-circle-arrow-right:before {
    content: "\e131"
}

.glyphicon-circle-arrow-left:before {
    content: "\e132"
}

.glyphicon-circle-arrow-up:before {
    content: "\e133"
}

.glyphicon-circle-arrow-down:before {
    content: "\e134"
}

.glyphicon-globe:before {
    content: "\e135"
}

.glyphicon-wrench:before {
    content: "\e136"
}

.glyphicon-tasks:before {
    content: "\e137"
}

.glyphicon-filter:before {
    content: "\e138"
}

.glyphicon-briefcase:before {
    content: "\e139"
}

.glyphicon-fullscreen:before {
    content: "\e140"
}

.glyphicon-dashboard:before {
    content: "\e141"
}

.glyphicon-paperclip:before {
    content: "\e142"
}

.glyphicon-heart-empty:before {
    content: "\e143"
}

.glyphicon-link:before {
    content: "\e144"
}

.glyphicon-phone:before {
    content: "\e145"
}

.glyphicon-pushpin:before {
    content: "\e146"
}

.glyphicon-usd:before {
    content: "\e148"
}

.glyphicon-gbp:before {
    content: "\e149"
}

.glyphicon-sort:before {
    content: "\e150"
}

.glyphicon-sort-by-alphabet:before {
    content: "\e151"
}

.glyphicon-sort-by-alphabet-alt:before {
    content: "\e152"
}

.glyphicon-sort-by-order:before {
    content: "\e153"
}

.glyphicon-sort-by-order-alt:before {
    content: "\e154"
}

.glyphicon-sort-by-attributes:before {
    content: "\e155"
}

.glyphicon-sort-by-attributes-alt:before {
    content: "\e156"
}

.glyphicon-unchecked:before {
    content: "\e157"
}

.glyphicon-expand:before {
    content: "\e158"
}

.glyphicon-collapse-down:before {
    content: "\e159"
}

.glyphicon-collapse-up:before {
    content: "\e160"
}

.glyphicon-log-in:before {
    content: "\e161"
}

.glyphicon-flash:before {
    content: "\e162"
}

.glyphicon-log-out:before {
    content: "\e163"
}

.glyphicon-new-window:before {
    content: "\e164"
}

.glyphicon-record:before {
    content: "\e165"
}

.glyphicon-save:before {
    content: "\e166"
}

.glyphicon-open:before {
    content: "\e167"
}

.glyphicon-saved:before {
    content: "\e168"
}

.glyphicon-import:before {
    content: "\e169"
}

.glyphicon-export:before {
    content: "\e170"
}

.glyphicon-send:before {
    content: "\e171"
}

.glyphicon-floppy-disk:before {
    content: "\e172"
}

.glyphicon-floppy-saved:before {
    content: "\e173"
}

.glyphicon-floppy-remove:before {
    content: "\e174"
}

.glyphicon-floppy-save:before {
    content: "\e175"
}

.glyphicon-floppy-open:before {
    content: "\e176"
}

.glyphicon-credit-card:before {
    content: "\e177"
}

.glyphicon-transfer:before {
    content: "\e178"
}

.glyphicon-cutlery:before {
    content: "\e179"
}

.glyphicon-header:before {
    content: "\e180"
}

.glyphicon-compressed:before {
    content: "\e181"
}

.glyphicon-earphone:before {
    content: "\e182"
}

.glyphicon-phone-alt:before {
    content: "\e183"
}

.glyphicon-tower:before {
    content: "\e184"
}

.glyphicon-stats:before {
    content: "\e185"
}

.glyphicon-sd-video:before {
    content: "\e186"
}

.glyphicon-hd-video:before {
    content: "\e187"
}

.glyphicon-subtitles:before {
    content: "\e188"
}

.glyphicon-sound-stereo:before {
    content: "\e189"
}

.glyphicon-sound-dolby:before {
    content: "\e190"
}

.glyphicon-sound-5-1:before {
    content: "\e191"
}

.glyphicon-sound-6-1:before {
    content: "\e192"
}

.glyphicon-sound-7-1:before {
    content: "\e193"
}

.glyphicon-copyright-mark:before {
    content: "\e194"
}

.glyphicon-registration-mark:before {
    content: "\e195"
}

.glyphicon-cloud-download:before {
    content: "\e197"
}

.glyphicon-cloud-upload:before {
    content: "\e198"
}

.glyphicon-tree-conifer:before {
    content: "\e199"
}

.glyphicon-tree-deciduous:before {
    content: "\e200"
}

* {
    -webkit-box-sizing: border-box;
    -moz-box-sizing: border-box;
    box-sizing: border-box
}

:before,
:after {
    -webkit-box-sizing: border-box;
    -moz-box-sizing: border-box;
    box-sizing: border-box
}

html {
    font-size: 10px;
    -webkit-tap-highlight-color: rgba(0, 0, 0, 0)
}

body {
    font-family: "Helvetica Neue", Helvetica, Arial, sans-serif;
    font-size: 14px;
    line-height: 1.42857143;
    color: #333;
    background-color: #fff
}

input,
button,
select,
textarea {
    font-family: inherit;
    font-size: inherit;
    line-height: inherit
}

a {
    color: #428bca;
    text-decoration: none
}

a:hover,
a:focus {
    color: #2a6496;
    text-decoration: underline
}

a:focus {
    outline: thin dotted;
    outline: 5px auto -webkit-focus-ring-color;
    outline-offset: -2px
}

…
.custom-carousel .button-container {
    background: transparent;
    border: 0;
    right: 5%;
    width: 80px;
}

.custom-carousel .no-left-button {
    margin-left: 80px;
}

.custom-carousel .right-button {
    right: 0;
}

.react-scorecards.score-cards .score-card-carousel-wrapper {
    overflow: hidden;
}

.react-scorecards.score-cards .score-card-carousel-wrapper .score-card-carousel-container {
    position: relative;
    display: flex;
    flex-direction: row;
    transition: all 1s ease-in-out;
}

.react-scorecards.score-cards .score-card-carousel-wrapper .score-card-carousel-container .score-card-item {
    margin-right: 30px;
    opacity: 0.5;
}

.react-scorecards.score-cards .score-card-carousel-wrapper .score-card-carousel-container .score-card-item[activescorecard="false"] {
    cursor: pointer;
}

.react-scorecards.score-cards .score-card-carousel-wrapper .score-card-carousel-container .score-card-item:last-child {
    margin-right: 0;
}

.react-scorecards.score-cards .score-card-carousel-wrapper .score-card-carousel-container .score-card-item .score_card_container {
    width: 293px;
    height: 100%;
    background: #E5E1E1;
    border: 1px solid #CCC;
}

.react-scorecards.score-cards .score-card-carousel-wrapper .score-card-carousel-container .score-card-item:hover {
    opacity: 1;
}

.react-scorecards.score-cards .score-card-carousel-wrapper .score-card-carousel-container .carouselItem {
    width: 293px;
}

.react-scorecards.score-cards .score-card-carousel-dots {
    margin: 15px 0;
    width: 100%;
    text-align: center;
    justify-content: center;
    display: inline-block;
}

.react-scorecards.score-cards .score-card-carousel-dots .button-container {
    display: inline-block;
    margin: 0 6px;
}

.react-scorecards.score-cards .score-card-carousel-dots .default-button {
    color: #dddddd;
    display: inline-block;
    cursor: pointer;
}

.react-scorecards.score-cards .score-card-carousel-dots .active-button {
    color: #42556c;
}

.react-scorecards.score-cards .score-card-carousel-dots .neighbor-button {
    color: #999999;
}

.react-scorecards.score-cards .score-card-carousel-dots .dots-button-next {
    display: inline-block;
    cursor: pointer;
}

.react-scorecards.score-cards .score-card-carousel-dots .dots-button-next .fa-angle-right {
    font-size: 17px;
}

.react-scorecards.score-cards .score-card-carousel-dots .dots-button-prev {
    display: inline-block;
    cursor: pointer;
}

.react-scorecards.score-cards .score-card-carousel-dots .dots-button-prev .fa-angle-left {
    font-size: 17px;
}

.react-scorecards.score-cards .score-card-carousel-dots .button-text {
    padding: 0 8px 0 11px;
}

.react-scorecards.score-cards .score-card-carousel-dots .button-text:hover {
    font-weight: bold;
}

.react-scorecards.score-cards .score-card-carousel-dots .dots-carousel-container {
    display: inline-block;
}

.react-scorecards.score-cards .score-card-carousel-dots .dots-carousel-container.block {
    display: block;
}

.react-scorecards.score-cards .score-card-carousel-dots .dots-carousel-container .item0:hover {
    color: #0274bf;
}

.react-scorecards.score-cards .score-card-carousel-dots .dots-carousel-container .item1:hover {
    color: #444d8a;
}

.react-scorecards.score-cards .score-card-carousel-dots .dots-carousel-container .item2:hover {
    color: #516986;
}

.react-scorecards.score-cards .score-card-carousel-dots .dots-carousel-container .item3:hover {
    color: #395ab0;
}

.react-scorecards.score-cards .score-card-carousel-dots .dots-carousel-container .item4:hover {
    color: #2d468a;
}

.react-scorecards.score-cards .score-card-carousel-dots .dots-carousel-container .item5:hover {
    color: #42556c;
}

.react-scorecards.score-cards .score-card-carousel-dots .dots-carousel-container .item6:hover {
    color: #0274bf;
}

.react-scorecards.score-cards .score-card-carousel-dots .dots-carousel-container .item7:hover {
    color: #444d8a;
}

.react-scorecards.score-cards .score-card-carousel-dots .dots-carousel-container .item8:hover {
    color: #516986;
}

.react-scorecards.score-cards .score-card-carousel-dots .dots-carousel-container .item9:hover {
    color: #395ab0;
}

.react-scorecards.score-cards .score-card-carousel-dots .dots-carousel-container .item10:hover {
    color: #2d468a;
}

.react-scorecards.score-cards .score-card-carousel-dots .dots-carousel-container .item11:hover {
    color: #42556c;
}

.react-scorecards.score-cards .score-card-carousel-dots .dots-carousel-container .item12:hover {
    color: #0274bf;
}

.react-scorecards.score-cards .score-card-carousel-dots .dots-carousel-container .item13:hover {
    color: #444d8a;
}

.react-scorecards.score-cards .score-card-carousel-dots .dots-carousel-container .item14:hover {
    color: #516986;
}

.react-scorecards.score-cards .score-card-carousel-dots .dots-carousel-container .item15:hover {
    color: #395ab0;
}

.react-scorecards.score-cards .score-card-carousel-dots .dots-carousel-container .item16:hover {
    color: #2d468a;
}

.react-scorecards.score-cards .score-card-carousel-dots .dots-carousel-container .item17:hover {
    color: #42556c;
}

.react-scorecards.score-cards .score-card-carousel-dots .dots-carousel-container .item18:hover {
    color: #0274bf;
}

.react-scorecards.score-cards .score-card-carousel-dots .dots-carousel-container .item19:hover {
    color: #444d8a;
}

.react-scorecards.score-cards .score-card-carousel-dots .dots-carousel-container .item20:hover {
    color: #516986;
}

.react-scorecards.score-cards .score-card-carousel-dots .dots-carousel-container .item21:hover {
    color: #395ab0;
}

.react-scorecards.score-cards .score-card-carousel-dots .dots-carousel-container .item22:hover {
    color: #2d468a;
}

.react-scorecards.score-cards .score-card-item[activescorecard="true"] .score_card_footer {
    background-color: #E5E1E1;
    overflow: initial;
}

.react-scorecards.score-cards .score-card-item {
    position: relative;
}

.react-scorecards.score-cards .score_card_footer,
.react-scorecards.score-cards .score-card-item[activescorecard="true"] .score_card_show_sign {
    background-color: white;
}

.react-scorecards.score-cards .score_card_footer {
    bottom: 1px;
    position: absolute;
    width: 291px;
}

.react-scorecards.score-cards .score_card_body {
    height: 220px;
}

.react-scorecards.score-cards .score-card-item[activescorecard="true"] .score_card_footer_text,
.react-scorecards.score-cards .score-card-item[activescorecard="true"] .score_card_arrowContainer {
    display: none;
}

.react-scorecards.score-cards .score-card-item[activescorecard="true"] {
    opacity: 1 !important;
}

.react-scorecards.score-cards .score-card-item[activescorecard="true"] .score_card_container[iseditable="true"] .score_card_iconContainer {
    display: inline-block;
}

div.editCreateFastPayCarousel .multi-item-carousel {
    padding: 0;
}

div.noPaddingCarousel .multi-item-carousel {
    padding: 0;
}

#page-content .score-card-item .react-custom-textbox.error {
    padding: 0;
    background: none;
    border: none;
    margin-bottom: 0;
    margin-top: 0;
}

#page-content .score-card-item .react-custom-textbox.error .error-msg {
    display: none;
}

.rw-popup-container {
    position: absolute;
    z-index: 100;
    top: 100%;
    left: -6px;
    right: -6px;
}

.rw-popup-container.rw-dropup {
    top: auto;
    bottom: 100%;
}

.rw-state-focus .rw-popup-container {
    z-index: 101;
}

.react-modal-wrapper .rw-popup-container {
    z-index: 1005;
}

.rw-state-focus .react-modal-wrapper .rw-popup-container {
    z-index: 1006;
}

.rw-popup-transition {
    width: 100%;
    margin-bottom: 6px;
    padding: 0 6px;
}

.rw-dropup>.rw-popup-transition {
    margin-bottom: 0;
    margin-top: 6px;
}

.rw-popup {
    border-top-right-radius: 0;
    border-top-left-radius: 0;
    border-bottom-right-radius: 3px;
    border-bottom-left-radius: 3px;
    box-shadow: 0 5px 6px rgba(0, 0, 0, 0.2);
    border: #ccc 1px solid;
    background: #fff;
}

.rw-dropup .rw-popup {
    border-bottom-right-radius: 0;
    border-bottom-left-radius: 0;
    border-top-right-radius: 3px;
    border-top-left-radius: 3px;
    box-shadow: 0 -2px 6px rgba(0, 0, 0, 0.2);
}

.rw-popup-transition {
    transition: transform 200ms;
}

.rw-popup-transition-entering {
    overflow: hidden;
}

.rw-popup-transition-entering .rw-popup-transition {
    transform: translateY(0);
    transition-timing-function: ease-out;
}

.rw-popup-transition-exiting .rw-popup-transition {
    transition-timing-function: ease-in;
}

.rw-popup-transition-exiting,
.rw-popup-transition-exited {
    overflow: hidden;
}

.rw-popup-transition-exiting .rw-popup-transition,
.rw-popup-transition-exited .rw-popup-transition {
    transform: translateY(-100%);
}

.rw-popup-transition-exiting.rw-dropup .rw-popup-transition,
.rw-popup-transition-exited.rw-dropup .rw-popup-transition {
    transform: translateY(100%);
}

.rw-popup-transition-exited {
    display: none;
}

.rw-state-disabled {
    box-shadow: none;
    cursor: not-allowed;
}

.react-spinner-loader-wrapper {
    position: absolute;
    top: 0;
    bottom: 0;
    right: 0;
    left: 0;
    background: rgba(192, 192, 192, 0.75);
    z-index: 900;
    justify-content: center;
    align-items: center;
    display: none;
}

.react-spinner-loader-wrapper.is-visible {
    display: flex;
}

.react-spinner-loader-wrapper.fixedPositionWrapper {
    position: fixed;
    z-index: 10001;
}

.react-spinner-loader-position {
    position: relative;
}

.react-spinner-loader-position.spinner-height {
    height: 100px;
}

.react-spinner-loader-position.spinner-height-75 {
    height: 75px;
}

.goals-modal-wrapper {
    width: 510px;
}

.react-modal-container .create-goal-card .custom-carousel {
    width: 100%;
}

.react-modal-container .create-goal-card .custom-carousel .button-container {
    left: 0;
    width: 22px;
}

.react-modal-container .create-goal-card .custom-carousel .no-left-button {
    margin-left: 22px;
}

.react-modal-container .create-goal-card .carousel-container .carousel-inner {
    width: 400px;
    height: 130px;
}

.react-modal-container .create-goal-card .carousel-container .carousel-inner .active {
    width: 130px;
    height: 130px;
    font-size: 99px;
    top: 0;
    left: 35%;
}

.react-modal-container .create-goal-card .carousel-container .carousel-inner .prev {
    left: 2%;
    width: 100px;
    height: 100px;
    font-size: 76px;
    top: 0;
}

.react-modal-container .create-goal-card .carousel-container .carousel-inner .next {
    left: 74%;
    width: 100px;
    height: 100px;
    font-size: 76px;
    top: 0;
}

.react-modal-container .create-goal-card .carousel-container .carousel-inner .selectedImg {
    width: auto;
    height: auto;
}

.notification-label-centered {
    position: absolute;
    left: 50%;
    top: 50%;
    transform: translate(-50%, -50%);
}

.left-budgets-details-transactions .amountContainer.budgets-split-info {
    width: 40% !important;
    float: right;
    top: 32% !important;
}

.left-budgets-details-transactions .amountContainer.budgets-split-info .amount {
    float: right !important;
    width: 100% !important;
}

.left-budgets-details-transactions .budgets-date {
    width: 35px;
}

.left-budgets-details-transactions .budgets-details {
    width: 205px;
}

.left-budgets-details-transactions .budgets-categoryAndStatus {
    width: 160px;
}

.left-budgets-details-transactions .budgets-amount {
    width: 120px;
}

.left-budgets-details-transactions .uncategorized-budgets-container {
    width: 100px;
}

.pfm-circle__small {
    display: inline-block;
    margin-right: 5px;
    border-radius: 33px;
    height: 35px;
    width: 35px;
    flex-shrink: 0;
    margin-left: 3px;
}

.mailreply pre {
    border: none;
}

.cost-calculation-data .ENTRY,
.cost-calculation-data .ONGOING,
.cost-calculation-data .EXIT,
.cost-calculation-data .TAX {
    padding-left: 20px;
}

.cost-calculation-data .TOTAL_EXPENSE-row {
    font-weight: bold;
}

.cost-calculation-data .years-row .flex-col-9 {
    border-right: 1px solid #e4e4e4;
}

.cost-calculation-data .years-row .flex-col-12 {
    border-bottom: 1px solid #e4e4e4;
}

.years-row {
    justify-content: center;
}

.years-row>.flex-col-3 {
    border: 0.5px solid #e4e4e4;
    flex: 1;
}

.table-header-securities {
    padding: 10px;
    color: white;
    font-weight: bold;
    background-color: #42556c;
}

.table-header-securities.banking-1 {
    background-color: #0274bf;
}

.table-header-securities.banking-2 {
    background-color: #444d8a;
}

.table-header-securities.banking-3 {
    background-color: #516986;
}

.table-header-securities.banking-4 {
    background-color: #395ab0;
}

.table-header-securities.banking-5 {
    background-color: #2d468a;
}

.table-header-securities.banking-6 {
    background-color: #42556c;
}

.table-header-securities.borrow-1 {
    background-color: #bb1166;
}

.table-header-securities.borrow-2 {
    background-color: #8a0018;
}

.table-header-securities.borrow-3 {
    background-color: #7d3358;
}

.table-header-securities.borrow-4 {
    background-color: #bf1b3d;
}

.table-header-securities.borrow-5 {
    background-color: #9b1530;
}

.table-header-securities.borrow-6 {
    background-color: #7d3358;
}

.table-header-securities.investing-1 {
    background-color: #0ea185;
}

.table-header-securities.investing-2 {
    background-color: #248a39;
}

.table-header-securities.investing-3 {
    background-color: #007d77;
}

.table-header-securities.investing-4 {
    background-color: #7ab33a;
}

.table-header-securities.investing-5 {
    background-color: #5e8a2d;
}

.table-header-securities.investing-6 {
    background-color: #005b57;
}

.my-securities-table.banking-1 .rt-tbody .rt-tr-group.left-bordered {
    border-left-color: #0274bf;
}

.my-securities-table.banking-1 .rt-tbody .rt-tr-group:hover {
    border-left-color: #0274bf;
}

.my-securities-table.banking-2 .rt-tbody .rt-tr-group.left-bordered {
    border-left-color: #444d8a;
}

.my-securities-table.banking-2 .rt-tbody .rt-tr-group:hover {
    border-left-color: #444d8a;
}

.my-securities-table.banking-3 .rt-tbody .rt-tr-group.left-bordered {
    border-left-color: #516986;
}

.my-securities-table.banking-3 .rt-tbody .rt-tr-group:hover {
    border-left-color: #516986;
}

.my-securities-table.banking-4 .rt-tbody .rt-tr-group.left-bordered {
    border-left-color: #395ab0;
}

.my-securities-table.banking-4 .rt-tbody .rt-tr-group:hover {
    border-left-color: #395ab0;
}

.my-securities-table.banking-5 .rt-tbody .rt-tr-group.left-bordered {
    border-left-color: #2d468a;
}

.my-securities-table.banking-5 .rt-tbody .rt-tr-group:hover {
    border-left-color: #2d468a;
}

.my-securities-table.banking-6 .rt-tbody .rt-tr-group.left-bordered {
    border-left-color: #42556c;
}

.my-securities-table.banking-6 .rt-tbody .rt-tr-group:hover {
    border-left-color: #42556c;
}

.my-securities-table.borrow-1 .rt-tbody .rt-tr-group.left-bordered {
    border-left-color: #bb1166;
}

.my-securities-table.borrow-1 .rt-tbody .rt-tr-group:hover {
    border-left-color: #bb1166;
}

.my-securities-table.borrow-2 .rt-tbody .rt-tr-group.left-bordered {
    border-left-color: #8a0018;
}

.my-securities-table.borrow-2 .rt-tbody .rt-tr-group:hover {
    border-left-color: #8a0018;
}

.my-securities-table.borrow-3 .rt-tbody .rt-tr-group.left-bordered {
    border-left-color: #7d3358;
}

.my-securities-table.borrow-3 .rt-tbody .rt-tr-group:hover {
    border-left-color: #7d3358;
}

.my-securities-table.borrow-4 .rt-tbody .rt-tr-group.left-bordered {
    border-left-color: #bf1b3d;
}

.my-securities-table.borrow-4 .rt-tbody .rt-tr-group:hover {
    border-left-color: #bf1b3d;
}

.my-securities-table.borrow-5 .rt-tbody .rt-tr-group.left-bordered {
    border-left-color: #9b1530;
}

.my-securities-table.borrow-5 .rt-tbody .rt-tr-group:hover {
    border-left-color: #9b1530;
}

.my-securities-table.borrow-6 .rt-tbody .rt-tr-group.left-bordered {
    border-left-color: #7d3358;
}

.my-securities-table.borrow-6 .rt-tbody .rt-tr-group:hover {
    border-left-color: #7d3358;
}

.my-securities-table.investing-1 .rt-tbody .rt-tr-group.left-bordered {
    border-left-color: #0ea185;
}

.my-securities-table.investing-1 .rt-tbody .rt-tr-group:hover {
    border-left-color: #0ea185;
}

.my-securities-table.investing-2 .rt-tbody .rt-tr-group.left-bordered {
    border-left-color: #248a39;
}

.my-securities-table.investing-2 .rt-tbody .rt-tr-group:hover {
    border-left-color: #248a39;
}

.my-securities-table.investing-3 .rt-tbody .rt-tr-group.left-bordered {
    border-left-color: #007d77;
}

.my-securities-table.investing-3 .rt-tbody .rt-tr-group:hover {
    border-left-color: #007d77;
}

.my-securities-table.investing-4 .rt-tbody .rt-tr-group.left-bordered {
    border-left-color: #7ab33a;
}

.my-securities-table.investing-4 .rt-tbody .rt-tr-group:hover {
    border-left-color: #7ab33a;
}

.my-securities-table.investing-5 .rt-tbody .rt-tr-group.left-bordered {
    border-left-color: #5e8a2d;
}

.my-securities-table.investing-5 .rt-tbody .rt-tr-group:hover {
    border-left-color: #5e8a2d;
}

.my-securities-table.investing-6 .rt-tbody .rt-tr-group.left-bordered {
    border-left-color: #005b57;
}

.my-securities-table.investing-6 .rt-tbody .rt-tr-group:hover {
    border-left-color: #005b57;
}

.my-securities-table .second-level-body .details-column {
    padding-left: 20px;
}

.my-securities-table .expandable-info-footer .btn-text {
    padding-right: 40px;
}

.react-table-wrapper .my-securities-table .rt-tr-group .expandable-info-footer {
    margin-left: 15px;
}


.rw-combobox {
    line-height: 1;
}

.rw-combobox.rw-widget .rw-list::-webkit-scrollbar {
    width: 6px;
}

.rw-combobox.rw-widget .rw-list::-webkit-scrollbar-track {
    background: rgba(0, 0, 0, 0.1);
    -webkit-border-radius: 0;
    -moz-border-radius: 0;
    border-radius: 0;
}

.rw-combobox.rw-widget .rw-list::-webkit-scrollbar-thumb {
    -webkit-border-radius: 0;
    -moz-border-radius: 0;
    border-radius: 0;
    background: #333;
}

.rw-combobox.rw-widget .rw-list-option {
    border: none;
    border-left: 2px solid rgba(0, 0, 0, 0.1);
    line-height: 30px;
    margin: 10px;
    padding-left: 10px;
    -webkit-transition: all 0.3s ease-in-out;
    -moz-transition: all 0.3s ease-in-out;
    -ms-transition: all 0.3s ease-in-out;
    -o-transition: all 0.3s ease-in-out;
    transition: all 0.3s ease-in-out;
}

.rw-combobox.rw-widget .rw-list-option.rw-state-focus {
    background: #f5f5f5;
    border: none;
    border-left: 2px solid rgba(0, 0, 0, 0.1);
}

.rw-combobox.rw-widget .rw-list-option.rw-state-selected {
    color: #333;
    background: #f5f5f5;
}

.rw-combobox.rw-widget .rw-list-option:hover {
    border-left: 2px solid #333;
    background: #f5f5f5;
}

.rw-combobox.rw-widget .rw-widget-input.rw-input,
.rw-combobox.rw-widget .rw-filter-input {
    height: 38px;
}

.rw-combobox.rw-widget.rw-state-focus {
    border: none;
    box-shadow: none;
}

.rw-combobox.rw-widget.rw-state-focus .rw-widget-container {
    border: thin solid #999;
    box-shadow: none;
}

.rw-combobox.rw-widget .rw-widget-container {
    -webkit-border-radius: 0;
    -moz-border-radius: 0;
    border-radius: 0;
}

.rw-combobox.rw-widget .rw-widget-container .rw-state-focus {
    border: thin solid black;
    box-shadow: none;
}

.rw-combobox.rw-widget .rw-widget-container .rw-state-focus:hover {
    border: 1px solid black;
    box-shadow: none;
}

.rw-combobox.rw-widget .rw-widget-container .rw-state-focus>.rw-widget-container {
    border: thin solid black;
    box-shadow: none;
}

.rw-combobox.rw-widget .rw-widget-container .rw-state-focus>.rw-widget-container:hover {
    border: 1px solid black;
    box-shadow: none;
}

.selectType {
    width: 200px;
}

.react-custom-combobox.hideDropDownButton .rw-select {
    display: none;
}

fieldset .react-custom-combobox:not(:last-child) {
    margin-bottom: 10px;
}

fieldset .flex-row:last-child .react-custom-combobox {
    margin-bottom: 0;
}

.react-custom-combobox .error-msg {
    display: none;
    color: red;
    padding-left: 10px;
    font-size: 12px;
}

.react-custom-combobox.error .rw-combobox.rw-widget .rw-widget-container {
    border: thin solid red;
}

.react-custom-combobox.error .error-msg {
    display: block;
}

.react-custom-combobox .rw-select {
    line-height: 40px;
    height: auto;
    position: relative;
    width: 30px;
}

.react-custom-combobox .rw-select .rw-btn-select {
    width: 30px;
    height: 40px;
    position: absolute;
    top: 0;
    right: 0;
}

.react-custom-combobox.hasCreationItem.hide-create-first .rw-combobox.rw-widget .rw-list .rw-list-option:first-child {
    display: none;
}

.react-custom-combobox.hasCreationItem.hide-create-last .rw-combobox.rw-widget .rw-list .rw-list-option:last-child {
    display: none;
}

.react-custom-combobox.auto_width_dropdown .rw-popup-container {
    right: auto;
}

.react-custom-combobox.auto_width_dropdown .rw-list-option {
    white-space: nowrap;
}

.react-datepicker-popper .react-datepicker {
    width: 480px;
}

.react-datepicker-popper .react-datepicker .react-datepicker__month-container {
    float: none;
}

.react-custom-number,
.react-custom-textbox {
    margin-bottom: 10px;
}

fieldset .flex-row:last-child .react-custom-number,
fieldset .flex-row:last-child .react-custom-textbox {
    margin-bottom: 0;
}

.react-custom-number input,
.react-custom-textbox input {
    height: 40px;
    width: 100%;
    padding: 0 10px;
    border: 1px solid #ccc;
    color: #555555;
}

.react-custom-number input:focus,
.react-custom-textbox input:focus {
    border: 1px solid #999;
}

.react-custom-number.disabled input,
.react-custom-textbox.disabled input {
    background: #f5f5f5;
}

.react-custom-number .error-msg,
.react-custom-textbox .error-msg {
    display: none;
    color: red;
    padding-left: 10px;
    font-size: 12px;
}

.react-custom-number.error input,
.react-custom-textbox.error input {
    border: 1px solid red;
}

.react-custom-number.error .error-msg,
.react-custom-textbox.error .error-msg {
    display: block;
}

.non-workday-handling label {
    text-transform: initial;
    font-weight: normal;
}

.non-workday-handling label::first-letter {
    text-transform: uppercase;
}

.react-custom-texteditor {
    margin-bottom: 10px;
}

.react-custom-texteditor.error .error-msg {
    display: block;
}

.react-custom-texteditor .error-msg {
    display: none;
    color: red;
    font-size: 12px;
    padding-left: 10px;
}

.react-custom-texteditor.isFocused div[class*=RichTextEditor__root] {
    border-color: #999;
}

.react-custom-texteditor.error div[class*=RichTextEditor__root] {
    border-color: red;
}


div[class*=react-inputs-validation__checkbox__box][class*=react-inputs-validation__disabled] {
    background: #f8f8f8;
    cursor: not-allowed;
}

div[class*=react-inputs-validation__error] {
    color: red;
}

div[class*=react-inputs-validation__error] input {
    border: 1px solid red;
}

input[class*=react-inputs-validation__checkbox__input] {
    display: none;
}

div[class*=react-inputs-validation__checkbox__wrapper] {
    cursor: pointer;
    outline: none;
}

div[class*=react-inputs-validation__checkbox__wrapper].labelFirst [class*=react-inputs-validation__checkbox__box] {
    margin-right: 0;
    margin-left: 10px;
    order: 2;
}

div[class*=react-inputs-validation__checkbox__wrapper] input[type=checkbox] {
    position: absolute;
    opacity: 0;
}

div[class*=react-inputs-validation__checkbox__container] {
    display: flex;
    align-items: center;
}

.react-modal-wrapper div[class*=react-inputs-validation__checkbox__container] label {
    margin-bottom: 0;
    text-transform: inherit;
}

div[class*=react-inputs-validation__checkbox__box] {
    box-sizing: content-box;
    width: 15px;
    min-width: 15px;
    height: 15px;
    position: relative;
    border: 1px solid #e5e5e5;
    margin-right: 10px;
    background-color: white;
    box-shadow: inset 0 1px 1px rgba(0, 0, 0, 0.075);
}

div[class*=react-inputs-validation__checkbox__box] div[class*=react-inputs-validation__box] {
    box-sizing: content-box;
    content: "";
    width: 8px;
    height: 4px;
    position: absolute;
    top: 3px;
    left: 2px;
    border: 3px solid #4a4a4a;
    border-top: none;
    border-right: none;
    background: transparent;
    opacity: 0;
    -webkit-transform: rotate(-45deg);
    transform: rotate(-45deg);
}

div[class*=react-inputs-validation__checkbox__wrapper][class*=react-inputs-validation__checked] div[class*=react-inputs-validation__checkbox__box] div[class*=react-inputs-validation__box] {
    opacity: 1;
}

.custom-disabled-checkbox {
    position: absolute;
    left: 0;
    right: 0;
    top: 0;
    bottom: 0;
    z-index: 1;
}

div[class*=react-inputs-validation__radiobox__item] {
    display: flex;
    align-items: center;
}

.react-modal-wrapper input[class*=react-inputs-validation__radiobox__input] {
    margin: 0;
}

.react-modal-wrapper label[class*=react-inputs-validation__radiobox__label] {
    margin-left: 3px;
    margin-bottom: 0;
}

.__react_component_tooltip {
    white-space: normal;
}

.__react_component_tooltip.no-wrap {
    white-space: nowrap;
}

.__react_component_tooltip.type-light.place-bottom:after {
    border-style: none;
}

.__react_component_tooltip.type-light.place-right:after {
    border-style: none;
}

.__react_component_tooltip.type-light.place-top:after {
    border-style: none;
}

.__react_component_tooltip.type-light.place-left:after {
    border-style: none;
}

.__react_component_tooltip.show {
    opacity: 1;
    margin-top: 0px;
    margin-left: 0px;
    visibility: visible;
    border: 1px solid rgba(0, 0, 0, 0.25);
}

.__react_component_tooltip.debit-card-tooltip {
    max-width: 300px;
    min-width: 230px;
    font-size: 11px;
}

.__react_component_tooltip.debit-card-tooltip .debit-card-tooltip-label {
    margin-top: 5px;
}

.__react_component_tooltip.debit-card-tooltip .debit-card-tooltip-value {
    font-weight: bold;
}

.__react_component_tooltip {
    max-width: 290px;
}

.__react_component_tooltip.type-light {
    border-color: rgba(0, 0, 0, 0.1);
    box-shadow: 0 3px 6px rgba(0, 0, 0, 0.16), 0 3px 6px rgba(0, 0, 0, 0.16);
}


.DayPicker {
    display: inline-block;
}

.DayPicker-wrapper {
    position: relative;
    -webkit-user-select: none;
    -moz-user-select: none;
    -ms-user-select: none;
    user-select: none;
    padding-bottom: 1rem;
    flex-direction: row;
}

.DayPicker-Months {
    display: flex;
    flex-wrap: wrap;
    justify-content: center;
}

.DayPicker-Month {
    display: table;
    border-collapse: collapse;
    border-spacing: 0;
    -webkit-user-select: none;
    -moz-user-select: none;
    -ms-user-select: none;
    user-select: none;
    margin: 0 1rem;
    margin-top: 1rem;
}

.DayPicker-NavButton {
    position: absolute;
    cursor: pointer;
    top: 1rem;
    right: 1.5rem;
    margin-top: 2px;
    color: #8b9898;
    width: 1.25rem;
    height: 1.25rem;
    display: inline-block;
    background-size: 50%;
    background-repeat: no-repeat;
    background-position: center;
}

.DayPicker-NavButton:hover {
    opacity: 0.8;
}

.DayPicker-NavButton--prev {
    margin-right: 1.5rem;
    background-image: url("data:image/png;base64,…");
}

.DayPicker-NavButton--next {
    background-image: url("data:image/png;base64,…");
}

.DayPicker-NavButton--interactionDisabled {
    display: none;
}

.DayPicker-Caption {
    padding: 0 0.5rem;
    display: table-caption;
    text-align: left;
    margin-bottom: 0.5rem;
}

.DayPicker-Caption>div {
    font-size: 1.15rem;
    font-weight: 500;
}

.DayPicker-Weekdays {
    margin-top: 1rem;
    display: table-header-group;
}

.DayPicker-WeekdaysRow {
    display: table-row;
}

.DayPicker-Weekday {
    display: table-cell;
    padding: 0.5rem;
    font-size: 0.875em;
    text-align: center;
    color: #8b9898;
}

.DayPicker-Weekday abbr[title] {
    border-bottom: none;
    text-decoration: none;
}

.DayPicker-Body {
    display: table-row-group;
}

.DayPicker-Week {
    display: table-row;
}

.DayPicker-Day {
    display: table-cell;
    padding: 0.5rem;
    text-align: center;
    cursor: pointer;
    vertical-align: middle;
}

.DayPicker-WeekNumber {
    display: table-cell;
    padding: 0.5rem;
    text-align: right;
    vertical-align: middle;
    min-width: 1rem;
    font-size: 0.75em;
    cursor: pointer;
    color: #8b9898;
    border-right: 1px solid #eaecec;
}

.DayPicker--interactionDisabled .DayPicker-Day {
    cursor: default;
}

.DayPicker-Footer {
    display: none;
}

.DayPicker-TodayButton {
    border: none;
    background-image: none;
    background-color: transparent;
    box-shadow: none;
    cursor: pointer;
    color: #4a90e2;
    font-size: 0.875em;
}


.DayPicker-Day--today {
    color: #d0021b;
    font-weight: 700;
}

.DayPicker-Day--outside {
    cursor: default;
    color: #8b9898;
}

.DayPicker-Day--disabled {
    color: #dce0e0;
    cursor: default;
}


.DayPicker-Day--sunday {
    background-color: #f7f8f8;
}

.DayPicker-Day--sunday:not(.DayPicker-Day--today) {
    color: #dce0e0;
}

.DayPicker-Day--selected:not(.DayPicker-Day--disabled):not(.DayPicker-Day--outside) {
    position: relative;
    color: #f0f8ff;
    background-color: #4a90e2;
    border-radius: 100%;
}

.DayPicker-Day--selected:not(.DayPicker-Day--disabled):not(.DayPicker-Day--outside):hover {
    background-color: #51a0fa;
}

.DayPicker:not(.DayPicker--interactionDisabled) .DayPicker-Day:not(.DayPicker-Day--disabled):not(.DayPicker-Day--selected):not(.DayPicker-Day--outside):hover {
    background-color: #f0f8ff;
    border-radius: 50%;
}


.DayPickerInput {
    display: inline-block;
}

.DayPickerInput-OverlayWrapper {
    position: relative;
}

.DayPickerInput-Overlay {
    left: 0;
    z-index: 1;
    position: absolute;
    background: white;
    box-shadow: 0 2px 5px rgba(0, 0, 0, 0.15);
}

.monthPicker {
    width: 100%;
    font-size: 14px;
    height: 40px;
    padding: 0 10px;
    border: 1px solid #ccc;
    letter-spacing: 2px;
}

.monthPicker.disabled {
    background-color: #f5f5f5;
}

.monthPicker_container.compact {
    width: 150px;
}

.monthPicker_container.error .monthPicker {
    border: 1px solid red;
}

.monthPicker_container.error .error-msg {
    display: block;
}

.monthPicker_container .error-msg {
    display: none;
    color: red;
    font-size: 12px;
}

.react-custom-day-picker {
    display: inline-block;
}

.react-custom-day-picker.compact-day-picker input {
    width: 90px;
}

.react-custom-day-picker.block-day-picker {
    display: block;
}

.react-custom-day-picker.block-day-picker .DayPickerInput {
    display: block;
}

.react-custom-day-picker .error-msg {
    display: none;
    color: red;
    padding-left: 10px;
    font-size: 12px;
}

.react-custom-day-picker.error {
    background: none;
}

.react-custom-day-picker.error .DayPickerInput input {
    border: 1px solid red;
}

.react-custom-day-picker.error .error-msg {
    display: block;
}

.react-custom-day-picker .DayPickerInput {
    position: relative;
    background: white;
}

.react-custom-day-picker .DayPickerInput input {
    width: 100%;
    font-size: 14px;
    height: 40px;
    padding: 0 10px;
    border: 1px solid #ccc;
}

.react-custom-day-picker .DayPickerInput .calendar-icon {
    position: absolute;
    right: 10px;
    top: 10px;
    font-size: 14px;
}

.react-custom-day-picker .DayPickerInput-OverlayWrapper {
    z-index: 901;
}

.react-custom-day-picker .DayPickerInput-OverlayWrapper .DayPickerInput-Overlay {
    width: 480px;
    height: 460px;
}

.react-custom-day-picker .DayPickerInput-OverlayWrapper .DayPickerInput-Overlay .DayPicker {
    width: 100%;
    height: 100%;
}

.react-custom-day-picker .DayPickerInput-OverlayWrapper .DayPickerInput-Overlay .DayPicker:not(.DayPicker--interactionDisabled) .DayPicker-Day:not(.DayPicker-Day--disabled):not(.DayPicker-Day--selected):not(.DayPicker-Day--outside):hover {

    -webkit-border-radius: 0;
    -moz-border-radius: 0;
    border-radius: 0;
}

.react-custom-day-picker .DayPickerInput-OverlayWrapper .DayPickerInput-Overlay .DayPicker-wrapper {
    padding: 0;
    border: 1px solid #ccc;
}

.react-custom-day-picker .DayPickerInput-OverlayWrapper .DayPickerInput-Overlay .DayPicker-wrapper .DayPicker-Month {
    margin: 0;
}

.react-custom-day-picker .DayPickerInput-OverlayWrapper .DayPickerInput-Overlay .DayPicker-Caption {
    height: 70px;
    font-size: 14px;
    line-height: 70px;
    border-bottom: 1px solid #ccc;
    margin: 0;
    padding: 0;
}

.react-custom-day-picker .DayPickerInput-OverlayWrapper .DayPickerInput-Overlay .DayPicker-Caption .navigation-section {
    position: relative;
    margin: 0 20px;
}

.react-custom-day-picker .DayPickerInput-OverlayWrapper .DayPickerInput-Overlay .DayPicker-Caption .navigation-section:first-child {
    margin: 0;
}

.react-custom-day-picker .DayPickerInput-OverlayWrapper .DayPickerInput-Overlay .DayPicker-Caption .navigation-section .caption-btn {
    position: absolute;
}

.react-custom-day-picker .DayPickerInput-OverlayWrapper .DayPickerInput-Overlay .DayPicker-Caption .navigation-section .caption-btn:first-child {
    left: 0;
}

.react-custom-day-picker .DayPickerInput-OverlayWrapper .DayPickerInput-Overlay .DayPicker-Caption .navigation-section .caption-btn:last-child {
    right: 0;
}

.react-custom-day-picker .DayPickerInput-OverlayWrapper .DayPickerInput-Overlay .DayPicker-Caption .today-btn,
.react-custom-day-picker .DayPickerInput-OverlayWrapper .DayPickerInput-Overlay .DayPicker-Caption .caption-btn {
    color: #999;
    cursor: pointer;
    background: none;
    border: none;
    padding: 0;
    margin: 0;
    font-weight: bold;
}

.react-custom-day-picker .DayPickerInput-OverlayWrapper .DayPickerInput-Overlay .DayPicker-Caption .caption-btn {
    min-width: 20px;
}

.react-custom-day-picker .DayPickerInput-OverlayWrapper .DayPickerInput-Overlay .DayPicker-Caption .today-btn {
    font-weight: normal;
    text-transform: uppercase;
}

.react-custom-day-picker .DayPickerInput-OverlayWrapper .DayPickerInput-Overlay .DayPicker-Caption .today-btn:hover {
    text-decoration: underline;
}

.react-custom-day-picker .DayPickerInput-OverlayWrapper .DayPickerInput-Overlay .DayPicker-Caption .today-btn,
.react-custom-day-picker .DayPickerInput-OverlayWrapper .DayPickerInput-Overlay .DayPicker-Caption .month-label,
.react-custom-day-picker .DayPickerInput-OverlayWrapper .DayPickerInput-Overlay .DayPicker-Caption .year-label {
    font-size: 14px;
}

.react-custom-day-picker .DayPickerInput-OverlayWrapper .DayPickerInput-Overlay .DayPicker-Caption .month-label {
    margin: 0 60px;
    text-transform: uppercase;
}

.react-custom-day-picker .DayPickerInput-OverlayWrapper .DayPickerInput-Overlay .DayPicker-Caption .year-label {
    margin: 0 15px;
}

.react-custom-day-picker .DayPickerInput-OverlayWrapper .DayPickerInput-Overlay .DayPicker-Weekdays {
    border-bottom: 1px solid #ccc;
}

.react-custom-day-picker .DayPickerInput-OverlayWrapper .DayPickerInput-Overlay .DayPicker-Weekdays .DayPicker-Weekday {
    font-size: 12px;
    text-transform: uppercase;
    color: black;
}

.react-custom-day-picker .DayPickerInput-OverlayWrapper .DayPickerInput-Overlay .DayPicker-Body .DayPicker-Week .DayPicker-Day {
    font-size: 12px;
    font-weight: bold;
    width: 70px;
    height: 50px;
}

.react-custom-day-picker .DayPickerInput-OverlayWrapper .DayPickerInput-Overlay .DayPicker-Body .DayPicker-Week .DayPicker-Day.DayPicker-Day--selected:not(.DayPicker-Day--disabled):not(.DayPicker-Day--outside) {
    -webkit-border-radius: 0;
    -moz-border-radius: 0;
    border-radius: 0;
}

.react-custom-day-picker .DayPickerInput-OverlayWrapper .DayPickerInput-Overlay .DayPicker-Body .DayPicker-Week .DayPicker-Day.DayPicker-Day--selected:not(.DayPicker-Day--disabled):not(.DayPicker-Day--outside):not(.DayPicker-Day--weekends) {
    background: none;
}

.react-custom-day-picker .DayPickerInput-OverlayWrapper .DayPickerInput-Overlay .DayPicker-Body .DayPicker-Week .DayPicker-Day .day-wrapper {
    background: white;
    color: black;
    cursor: pointer;
    width: 50px;
    height: 50px;
    line-height: 50px;
    -webkit-border-radius: 50%;
    -moz-border-radius: 50%;
    border-radius: 50%;
    -webkit-transition: background 0.3s ease-in-out;
    -moz-transition: background 0.3s ease-in-out;
    -ms-transition: background 0.3s ease-in-out;
    -o-transition: background 0.3s ease-in-out;
    transition: background 0.3s ease-in-out;
}

.react-custom-day-picker .DayPickerInput-OverlayWrapper .DayPickerInput-Overlay .DayPicker-Body .DayPicker-Week .DayPicker-Day .day-wrapper:hover {
    background: #F2F2F2;
}

.react-custom-day-picker .DayPickerInput-OverlayWrapper .DayPickerInput-Overlay .DayPicker-Body .DayPicker-Week .DayPicker-Day.DayPicker-Day--today .day-wrapper {
    background: none;
    color: black;
    -webkit-border-radius: 50%;
    -moz-border-radius: 50%;
    border-radius: 50%;
    border: 1px solid #F2F2F2;
}

.react-custom-day-picker .DayPickerInput-OverlayWrapper .DayPickerInput-Overlay .DayPicker-Body .DayPicker-Week .DayPicker-Day.DayPicker-Day--weekends {
    background-color: #eee;
}

.react-custom-day-picker .DayPickerInput-OverlayWrapper .DayPickerInput-Overlay .DayPicker-Body .DayPicker-Week .DayPicker-Day.DayPicker-Day--weekends .day-wrapper {
    background-color: #eee;
}

.react-custom-day-picker .DayPickerInput-OverlayWrapper .DayPickerInput-Overlay .DayPicker-Body .DayPicker-Week .DayPicker-Day.DayPicker-Day--selected .day-wrapper {
    background: #ffa900;
    color: black;
    border: none;
}

.react-custom-day-picker .DayPickerInput-OverlayWrapper .DayPickerInput-Overlay .DayPicker-Body .DayPicker-Week .DayPicker-Day.DayPicker-Day--disabled {
    background: #eee;
}

.react-custom-day-picker .DayPickerInput-OverlayWrapper .DayPickerInput-Overlay .DayPicker-Body .DayPicker-Week .DayPicker-Day.DayPicker-Day--disabled .day-wrapper {
    background: none;
    color: #c5c5c5;
    text-decoration: line-through;
    cursor: initial;
}

.react-custom-day-picker .DayPickerInput-OverlayWrapper .DayPickerInput-Overlay .DayPicker-Body .DayPicker-Week .DayPicker-Day.DayPicker-Day--outside .day-wrapper {
    color: #c5c5c5;
}

.react-custom-day-picker .DayPickerInput-OverlayWrapper .DayPickerInput-Overlay .DayPicker-Body .DayPicker-Week .DayPicker-Day:hover {
    background: none;
}

.react-search-component .ReactTable {
    border: none;
}

.react-search-component .rt-thead {
    display: none;
}

.react-search-component .rt-tbody .rt-td {
    height: auto;
}

.react-search-component .search_item {
    border-bottom: solid 1px #e3e3e3;
    display: list-item;
    background: url("../../../../../../cms/!root!/etc/designs/cee2020-ib-core/static/images/bullet.png") no-repeat scroll 0 0.5em transparent;
    padding-left: 18px !important;
}

.react-custom-checkbox .react-checkbox-visual {
    width: 15px;
    height: 15px;
    background: white;
    border: 1px solid #e5e5e5;
    float: left;
    margin-top: 2px;
    position: relative;
}

.react-custom-checkbox .react-checkbox-visual.checked:before {
    position: absolute;
    top: -2px;
    font-family: FontAwesome, sans;
    content: "\f00c";
}

.react-custom-checkbox .react-checkbox-visual.disabled {
    background: #eee;
}

.react-custom-checkbox .react-checkbox-label {
    padding-left: 25px;
    margin: 0;
}

.react-custom-checkbox .react-checkbox-label a {
    color: #428bca;
}

.react-custom-checkbox .react-checkbox-label .info-btn {
    padding-right: 5px;
}

.react-custom-checkbox .react-checkbox-label .info-btn i {
    margin-left: 0px;
}

.react-custom-checkbox .error-msg {
    display: none;
    color: red;
    font-size: 12px;
    padding-left: 10px;
}

.react-custom-checkbox.error .error-msg {
    display: block;
}

.react-custom-checkbox input[type=checkbox] {
    display: none;
}

.react-reset-section-button {
    background: none;
    font-size: 20px;
    border: none;
    position: absolute;
    top: 5px;
    right: 5px;
    z-index: 1;
}

.react-section-loader {
    background: rgba(0, 0, 0, 0.1);
    position: absolute;
    top: 0;
    bottom: 0;
    right: 0;
    left: 0;
    opacity: 0;
    z-index: -1;
    -webkit-transition: opacity 0.3s;
    -moz-transition: opacity 0.3s;
    -ms-transition: opacity 0.3s;
    -o-transition: opacity 0.3s;
    transition: opacity 0.3s;
}

.react-section-loader.shown {
    opacity: 1;
    z-index: 1;
}

.level-section-sustainer {
    height: 70px;
    width: 100%;
}

.dropdown-notification {
    width: 210px;
}

.searchList {
    width: 5%;
}

.popover {
    z-index: 15;
}

.noa-balloons-container .balloons-tooltip .balloons-tooltip-title {
    z-index: 2;
}

.noa-balloons-container .balloons-tooltip .box {
    z-index: 2;
}

.noa-balloons-container .balloons-tooltip .circle {
    width: 300px;
    height: 300px;
    position: absolute;
    background: none;
    border-radius: 50%;
    z-index: 1;
    cursor: pointer;
}

.budgets-wrapper .left-budgets-details-transactions {
    width: 575px;
    position: relative;
}

.budgets-wrapper .left-budgets-details-transactions .transactionsGrid .transactionDetailsExpanded .horizontal-line {
    width: 228px;
}

.budgets-wrapper .bubbles-header .bubbles-title {
    background: #3f3f3f;
    color: #fdfdfd;
    padding: 10px;
}

.budgets-wrapper .bubbles-header .bubbles-title h4 {
    font-size: 15px;
    font-weight: 600;
    margin: 0;
    line-height: normal;
}

.budgets-wrapper .bubbles-header .bubbles-title span {
    font-size: 13px;
    display: block;
    width: 100%;
    line-height: normal;
}

.budgets-wrapper .bubbles-filters {
    display: flex;
    padding: 0 10px;
    height: 40px;
    border-bottom: 1px solid #DEDEDE;
    background-color: #F2F2F2;
    line-height: 40px;
}

.budgets-wrapper .bubbles-filters .tab-list {
    padding: 0;
    margin: 0 20px;
    display: inline-block;
}

.budgets-wrapper .bubbles-filters .tab-list li {
    color: #A5A5A5;
    font-size: 13px;
    font-weight: bold;
    cursor: pointer;
    list-style: none;
    display: inline-block;
    border-right: 1px solid #ccc;
}

.budgets-wrapper .bubbles-filters .tab-list li span {
    margin: 0 10px;
    border-bottom: 3px solid transparent;
}

.budgets-wrapper .bubbles-filters .tab-list li:hover span,
.budgets-wrapper .bubbles-filters .tab-list li.active span {
    margin: 0 10px;
    border-bottom-color: #E61420;
    padding-bottom: 8px;
    color: #333;
}

.budgets-wrapper .bubbles-filters .tab-list li:last-child {
    border-right: none;
}

.budgets-wrapper .bubbles-filters .react-custom-combobox {
    display: inline-block;
    margin: 0 10px;
}

.budgets-wrapper .bubbles-footer {
    border-bottom: 1px solid #DEDEDE;
    border-top: 1px solid #DEDEDE;
    clear: both;
}

.budgets-wrapper .bubbles-footer ul {
    display: table;
    list-style: none;
    margin: 0 auto;
    overflow: hidden;
    padding: 20px 0;
    text-align: center;
}

.budgets-wrapper .bubbles-footer ul li {
    display: inline-block;
    width: 90px;
    float: left;
    margin: 0 auto;
}

.budgets-wrapper .bubbles-footer ul li a {
    color: #333;
}

.budgets-wrapper .bubbles-footer ul li a:hover {
    text-decoration: none;
}

.budgets-wrapper .bubbles-footer ul li a span:last-child {
    text-align: center;
    display: block;
    color: #333;
    font-size: 12px;
    line-height: 1.3em;
}

.budgets-wrapper .no-bubbles-text {
    display: table;
    font-size: 19px;
    text-align: center;
    font-weight: 300;
    font-family: PT Sans;
    position: relative;
    color: #999;
}

.budgets-wrapper .no-bubbles-text span {
    display: table-cell;
    vertical-align: middle;
}

.signature-flow .sign-offline {
    background: none;
    border: none;
    color: #35a000;
    font-family: inherit;
    font-size: 13px;
    font-weight: bold;
    height: 40px;
    text-transform: uppercase;
    line-height: 18px;
    padding: 0;
    text-decoration: underline;
}

#consentUsefullInfoTab .carousel__dot {
    background: transparent;
    border: none;
}

#consentUsefullInfoTab .carousel__dot-group {
    align-items: center;
    align-content: center;
    width: 100%;
    text-align: center;
    margin: 10px;
}

#consentUsefullInfoTab .carousel__next-button {
    float: right;
}

#consentUsefullInfoTab .carousel__inner-slide {
    overflow-y: auto;
}

.consent-free-form {
    display: block;
    padding: 15px;
}

.consent-free-form .bold {
    font-weight: bold;
}

.consent-free-form .marginBottom10 {
    margin-bottom: 10px;
}

.consent-free-form .marginLeft10 {
    margin-left: 10px;
}

.consent-free-form .marginLeft20 {
    margin-left: 20px;
}

.consent-free-form .marginLeft30 {
    margin-left: 30px;
}

.consent-free-form .marginLeft40 {
    margin-left: 40px;
}

.consent-free-form .marginTop20 {
    margin-top: 20px;
}

.consent-free-form .fieldset {
    margin: 20px 0 0 !important;
}

.consent-overview-details .details-button {
    color: #989898;
}

.consent-overview-details .action-button {
    color: #E61420;
}

.consent-overview .filterFooter {
    margin-top: 10px;
}

.consent-overview .filterFooter .clearSearch {
    width: 100px;
    min-height: 40px;
    display: inline-flex;
    align-items: center;
}

.react-product-calculator .calculator-lead-sentence {
    text-align: center;
    padding-bottom: 10px;
    font-size: 36px;
}

.react-product-calculator .react-product-calculator__results-wrapper .detail-container {
    border: 1px solid #dedede !important;
    margin: 20px;
    background-color: #f5f5f5;
}

.react-product-calculator .react-product-calculator__results-wrapper .detail-container .monthlyInstallment {
    font-size: 15px;
    font-family: 'PtSansBold';
    color: #333;
    padding-top: 15px;
    text-transform: uppercase;
}

.react-product-calculator .react-product-calculator__results-wrapper .detail-container .total {
    font-size: 30px;
    color: #333;
    padding: 0;
    margin: 18px auto 9px auto;
    font-family: "PtSansBold", "Sans-Serif";
}

.react-product-calculator .react-product-calculator__results-wrapper .error-output {
    color: red;
    text-align: center;
    text-transform: none;
    font-size: 12px;
}

.react-product-calculator .react-product-calculator__results-wrapper .button-details:hover {
    background-color: #fff;
}

.react-product-calculator .react-product-calculator__results-wrapper .button-details {
    max-width: 172px;
    border: solid 1px #999;
    margin: 20px auto 0;
    border-radius: 3px;
    padding: 10px 0px;
    font-size: 14px;
    color: #333;
    cursor: pointer;
    -webkit-transition: all .2s ease-out;
    -moz-transition: all .2s ease-out;
    -ms-transition: all .2s ease-out;
    transition: all .2s ease-out;
    margin-bottom: 20px;
    text-decoration: none;
    display: block;
}

.react-product-calculator .react-product-calculator__results-wrapper .button-output:hover {
    background-color: white;
    color: #004974;
}

.react-product-calculator .react-product-calculator__results-wrapper .button-output {
    background-color: #004974;
    color: white;
    padding: 12px 20px;
    -webkit-transition: all .2s ease-out;
    -moz-transition: all .2s ease-out;
    -ms-transition: all .2s ease-out;
    transition: all .2s ease-out;
    border: 1px solid #004974;
    border-radius: 3px;
    display: inline-block;
    text-transform: uppercase;
    min-width: 170px;
    max-width: 170px;
    max-height: 80px;
    min-height: 40px;
    cursor: pointer;
    font-size: 14px;
    text-decoration: none;
    display: block;
    margin-right: auto;
    margin-left: auto;
}

.margin-right-10 {
    margin-right: 10px;
}

.ieClass .bubbles-filters {
    height: 40px;
}